saved_models/2024_04_23/vanilla_one_store/1713902211.pt (torch, 42013 bytes, 21 tensors)

net.master.0.weight f4 [32, 4]
000000 d6 9d 67 be aa 49 21 3e 9c 85 be 3d c1 80 ad 3e
       -0.22618803 0.15750757 0.09302828 0.33887294
000010 22 3f 01 3f 78 9e 28 3d 03 14 06 bd 0f 6b d8 3e
       0.5048696 0.041166753 -0.03273393 0.4226918
000020 62 0c a2 be 34 01 87 be c0 0f 74 be bd eb 17 bf
       -0.31650072 -0.26368105 -0.23834133 -0.59344083
000030 46 e9 5d 3e a2 33 a4 3e a5 1c d9 be 82 41 dc 3e
       0.21671018 0.32070643 -0.42404667 0.43018728
000040 22 6c d5 bc fa 59 6a 3e 7e 7e fd be 6a 4e da 3e
       -0.026052538 0.22885886 -0.49510568 0.4263795
000050 77 c6 32 bf 43 15 de 3d 5b 0a 32 bf f6 da f2 be
       -0.69834083 0.10843899 -0.6954705 -0.4743268
000060 4c 50 c6 3d d6 d7 60 3d 5a 55 73 be 2b d0 fb 3d
       0.09683284 0.054893337 -0.23763028 0.12295564
000070 32 ce 9c bd fb a2 97 3e 91 bb 6e 3e b2 e4 fd 3e
       -0.07656516 0.29616532 0.23313738 0.49588543
000080 49 ad a8 be 00 7c 84 be f4 c1 f0 be 01 44 fb 3b
       -0.32944706 -0.25875854 -0.47022974 0.007668019
000090 eb 42 00 3f e5 6c 64 be 4d be ff 3e e4 35 bd 3e
       0.5010211 -0.22307165 0.49949875 0.36955178
0000a0 e7 00 a5 3e f7 a6 06 be be 51 11 bd 5f f9 b6 3e
       0.3222725 -0.1314963 -0.035478346 0.3573713
0000b0 59 6e 05 bf 41 27 e2 be 05 d8 8f be 64 00 b4 3d
       -0.521215 -0.44170573 -0.28094497 0.08789137
0000c0 b9 95 77 3e 30 51 8c 3e fb 07 3f 3e d8 56 c7 3e
       0.24178208 0.2740569 0.18655388 0.38933444
0000d0 5c ac 39 be 75 04 d9 3d 34 02 13 3f de fd c7 3e
       -0.18132156 0.10596553 0.57425237 0.39060873
0000e0 d8 8d 22 be c6 4b df be c9 be e1 be ab 4b 14 3d
       -0.15874422 -0.43612498 -0.4409087 0.036204975
0000f0 2b 7a ae 3e 11 85 04 3f 73 34 d6 3e 62 be 98 be
       0.34077582 0.51765543 0.4183689 -0.2983275
000100 3f 85 99 bc fc a3 ae 3e 27 b5 04 3e 4c 10 1a 3e
       -0.018740295 0.34109485 0.12959729 0.1504528
000110 70 db 05 3d 49 35 f9 3e 0c ad 68 bd a6 c8 ca 3d
       0.032679975 0.48673466 -0.056805655 0.09901552
000120 ed 96 ac be da 7d 92 be b4 98 50 3e 09 a9 c6 3e
       -0.33708897 -0.28611642 0.20370752 0.3880084
000130 7a 8a 59 3e d2 54 9b bd 97 c4 32 be 98 81 04 3d
       0.21244231 -0.075845376 -0.17457806 0.032350153
000140 b5 e7 f3 be e5 a1 19 3e 6a 20 f8 bd 16 0b 7e be
       -0.47637716 0.15003164 -0.121155575 -0.24808916
000150 b7 ff 8d 3e 43 7e 53 be ed 1d 72 3e 53 53 e3 3e
       0.27734157 -0.20653634 0.23644228 0.4439951
000160 2e fa 8c be f1 0c d2 be 83 b6 1e be f9 29 88 3e
       -0.27534622 -0.41025499 -0.1549931 0.26594523
000170 c5 06 3b 3e 14 12 cb 3e 31 b5 79 3e 3f 4d 3d 3d
       0.18264301 0.3966223 0.24385525 0.046216246
000180 bb 4b 3f be 6e 35 22 3e 62 85 c2 3e 15 69 c1 3e
       -0.18681233 0.15840694 0.37992388 0.37775484
000190 9f 48 c4 bc da 29 70 3d 95 52 f8 3e 54 76 37 be
       -0.02396041 0.058633663 0.48500505 -0.17916232
0001a0 b3 28 7f bd 17 4b 88 3e fe 8d a0 3d 49 72 b2 3e
       -0.062294673 0.2661979 0.07839583 0.34852818
0001b0 4a a1 25 be 7b 5f 56 3e 38 d2 0e bf 38 8a bf 3c
       -0.16174808 0.2093486 -0.5578952 0.023381338
0001c0 28 83 1f 3d dc ff d6 be bc 5a 6f 3e 09 95 a0 3b
       0.03894344 -0.4199208 0.23374456 0.004900579
0001d0 69 92 d7 3d d3 f7 5c be c8 87 ec 3e ca 4b a8 be
       0.105259724 -0.21578912 0.46197343 -0.32870322
0001e0 3b fb 2b bf 70 9c 8d be b7 59 b5 be a1 40 03 bf
       -0.6718022 -0.27658415 -0.3542001 -0.5127049
0001f0 4c 63 b6 3e d6 de 8f 3e 88 75 13 be 5a da 2d be
       0.35622633 0.28099698 -0.14400303 -0.16977826

net.master.0.bias f4 [32]
000000 33 de ee 3e 19 53 bc be 18 4f f2 3d 64 cc e7 bd
       0.466539 -0.36782148 0.11831492 -0.11318281
000010 9a 16 af 3e 31 fd 59 bf 2b 37 9c 3e 92 ea c5 3d
       0.3419693 -0.85151964 0.3051084 0.09663881
000020 8d a5 0b bf 39 90 46 be 6c 74 96 3e 2c fa 24 bf
       -0.54549485 -0.19390954 0.29385698 -0.6444423
000030 94 3c 27 3e 3b 7d 0c 3d 54 ca 1d be c2 2a 09 3f
       0.16331702 0.034299117 -0.15409213 0.5358087
000040 e8 1f 89 3e 04 d4 d0 3d 0a 65 d5 be c4 8e 1f bf
       0.26782155 0.10196689 -0.4167865 -0.6232722
000050 39 06 ec be da f8 41 3e 34 d0 90 bd 2b e7 06 3f
       -0.46098498 0.18942586 -0.070709616 0.52696484
000060 9c 93 df 3e b2 88 a9 be 2c df 68 3e cb 5e e5 be
       0.43667305 -0.33112103 0.22741383 -0.44798884
000070 aa 1f e0 3e db 23 94 3f 5a fc cf be 0e 88 db 3d
       0.43774158 1.1573442 -0.40622216 0.1071931

net.master.2.weight f4 [32, 32]
000000 1f c3 ca bd 57 fc 1c be 40 06 e8 bd 67 04 05 3e
       -0.09900498 -0.15330635 -0.11329317 0.1298996
000010 7b 07 72 3e 87 c2 36 3e d0 9f 03 3e 9f e6 cf 3d
       0.23635666 0.17847644 0.12853932 0.10151409
000020 6a 5e 2b 3e 23 f0 97 bd 42 7d 47 be 31 1d d0 3d
       0.16735235 -0.07418849 -0.19481376 0.10161818
000030 75 8a 0d 3e 8f d7 78 bd 34 df 9b bc ac 22 16 bd
       0.13822348 -0.060752448 -0.01902733 -0.03665416
000040 8a c9 13 bd 14 9e 0e 3e 35 44 07 be b1 25 db 3d
       -0.036080875 0.1392749 -0.13209613 0.107005484
000050 74 6f 23 3e 57 88 c4 bd b5 3f 9a bd 1b ec 10 bd
       0.15960485 -0.09596317 -0.075316824 -0.035381418
000060 76 d8 e5 3d f8 b9 e3 3d f2 b8 05 3e f9 24 12 bd
       0.11222927 0.11119455 0.13058832 -0.03567979
000070 b2 3d 0b 3e 1a 7e 20 bd b8 d5 e4 3d 4a 1d 65 3d
       0.13597754 -0.03918276 0.11173576 0.055936135
000080 45 87 e5 bc eb 43 5a be e9 57 a3 3c 98 d4 24 bd
       -0.028018603 -0.21314971 0.01993938 -0.040241808
000090 bd 5c 81 3c b8 df 04 3e de 9f 0d be af 57 50 be
       0.015791291 0.12975967 -0.13830516 -0.20345949
0000a0 a8 56 8b 3b 35 ff 38 be 91 78 4c be a4 f0 ad 3c
       0.0042522736 -0.18066104 -0.19967867 0.02123291
0000b0 ae af af 3c ff 26 92 bd 8b f6 8a 3e 33 4d 36 be
       0.021446075 -0.07136344 0.27141222 -0.17802887
0000c0 23 b7 e2 bd 81 ee 77 3d 59 aa 54 bd d8 c8 51 3d
       -0.11070087 0.06053019 -0.05192027 0.05121693
0000d0 68 db 19 3e de 18 50 be 57 03 4b 3e b6 48 69 be
       0.15025103 -0.20321986 0.19825493 -0.22781643
0000e0 11 30 d0 bd 55 36 12 3d f6 b7 07 bc 61 68 00 3e
       -0.10165418 0.035696346 -0.008283606 0.12539817
0000f0 78 68 6d be d8 c8 0e 3b ba a8 e9 bc ae 77 d4 bc
       -0.23184383 0.0021787193 -0.028522838 -0.025935974
000100 e6 5b 82 3d 1a 19 7c 3d 6e 1a 3a be a2 9f 2d 3e
       0.063651845 0.061547376 -0.18174145 0.16955426
000110 f9 7f f8 3d 75 76 ef bd a7 1d b5 3a ff 06 a3 3d
       0.12133784 -0.11692516 0.0013818041 0.07960319
000120 db 55 13 be ac 7c 24 be 51 6e a5 3d a7 47 c9 bd
       -0.1438822 -0.16063184 0.08077682 -0.0982812
000130 0f 1a 3a 3e 8e a6 b5 3a 2b 57 71 be d5 fd 11 3e
       0.18174003 0.0013858841 -0.23568408 0.14256985
000140 1a 2b 0c 3e 98 75 14 3d 37 56 43 be 5f de 12 be
       0.13688317 0.03624496 -0.19075857 -0.1434264
000150 36 3d 77 be 49 74 0d 3e c3 4c 35 be 35 4d b1 bd
       -0.24144444 0.1381389 -0.17705064 -0.08657304
000160 c3 84 f8 bd 57 7c b1 3d 91 6e 1a be e0 bd 79 bd
       -0.12134697 0.08666294 -0.1508124 -0.060972095
000170 19 0e 86 3d 5d d7 b9 bd b5 44 56 bd 80 ec 15 3e
       0.06545658 -0.090742804 -0.052311618 0.14640999
000180 0f 77 f9 3d c5 6e 45 3e f3 e6 d8 bc c4 4d 47 3e
       0.12180912 0.19280536 -0.026477313 0.19463259
000190 aa e9 c9 bc 5f 79 31 3e 4d 9d 88 bd 65 46 2a 3e
       -0.024647553 0.17331456 -0.06670628 0.16628416
0001a0 ed 28 80 bc cf e6 e6 3d 97 26 0e 3e 81 d0 97 3e
       -0.015644515 0.11274492 0.13881908 0.29651263
0001b0 a5 e4 18 3e 17 81 23 3e ca c7 e6 3d 2e a4 b6 3d
       0.14930971 0.15967213 0.112685755 0.089180335
0001c0 0c 2d 01 3e 62 79 1c 3e ea 51 b9 3d 06 b8 90 bd
       0.1261484 0.15280679 0.09048827 -0.0706635
0001d0 09 43 87 bc 47 f1 90 bd fe a0 63 3e d1 76 6c bd
       -0.016511457 -0.0707727 0.22229382 -0.0577305
0001e0 a0 4f bd 3d d3 08 39 3e ac cc 77 3d 58 e8 ae 3d
       0.09243703 0.18069772 0.060497925 0.0854041
0001f0 16 05 00 bd d0 b4 8b be c5 43 31 3e d9 a6 ff 3d
       -0.03125485 -0.27286386 0.17311008 0.124829955
000200 37 77 28 bd 05 0f 2f 3e bb a5 c8 3a 81 8c a4 bc
       -0.041129317 0.17095573 0.0015308181 -0.020086529
000210 23 37 a6 bd 08 91 65 bd 25 e3 08 3e 6a c0 a5 3d
       -0.08115985 -0.056046516 0.13367899 0.08093341
000220 df e6 30 be 63 8c 20 3e 18 81 87 3d 16 85 0f be
       -0.1727557 0.15678553 0.066164196 -0.14015612
000230 c9 2e d8 3b e0 9a 56 3e 06 8a 9c 3d df 3e f8 3d
       0.006597374 0.20957518 0.076435134 0.12121367
000240 48 ea f4 bd a6 7a 16 bc a4 4b d7 bc a1 52 49 bc
       -0.11958748 -0.009184515 -0.026281185 -0.012287767
000250 82 df c0 3d 6b e8 db bd 9e 57 52 be d5 6d e1 bd
       0.09417631 -0.107376896 -0.20541236 -0.11007277
000260 10 e1 35 3e 68 e0 ca bc 4c e5 7e 3d b6 b1 39 bc
       0.17761636 -0.024765208 0.062230393 -0.0113338735
000270 6b 71 09 3a 44 d9 5e bd 78 fc ef 3c 51 9c f8 bd
       0.0005243036 -0.05440642 0.029295191 -0.1213919
000280 87 46 58 3e fc 4e a9 bc a0 d4 b7 3d 4a 30 25 3e
       0.21120654 -0.020667545 0.08976102 0.16131702
000290 8c 68 0d bd bf 98 e3 bd b7 e5 2f 3e 9f 26 68 bd
       -0.03452353 -0.111131184 0.17177473 -0.056677457
0002a0 17 8e 4a be 5b 45 f9 bd 39 7e 98 3d 7f 11 2b be
       -0.19780765 -0.12171432 0.0744595 -0.16705893
0002b0 de 07 d8 3b 49 41 e2 bd 6b 49 2f bd 4d 4d e2 3d
       0.0065927347 -0.110476084 -0.042794626 0.110499
0002c0 d3 de e2 bd 54 48 e4 3d 4d 2f ef 3d 4a 55 4d be
       -0.110776566 0.11146608 0.11678944 -0.20052066
0002d0 33 f0 9d bd 40 ad 37 3e 6f 3a 27 be 7f 75 a5 3d
       -0.0771183 0.17937183 -0.16330884 0.08079051
0002e0 01 6b d5 bd ff 3f 20 3e 31 b8 43 3e cb 28 77 bd
       -0.104208 0.15649413 0.19113232 -0.060341638
0002f0 37 46 e0 bd 85 a7 3d bc 70 bf 3b bc bd 32 fc bd
       -0.109508924 -0.011575584 -0.0114592165 -0.12314365
000300 74 65 34 3e 17 df ad bc cb ed a7 bd f5 87 2c be
       0.17616826 -0.021224542 -0.08199652 -0.16848738
000310 fd 14 1a 3e c2 37 b0 bd 23 fa 0a be 90 21 6a 3d
       0.15047069 -0.08604385 -0.13571982 0.057160914
000320 62 3c ab bb c6 f4 8d bc 45 94 17 be 7c cb f8 3d
       -0.005225704 -0.017328631 -0.14802654 0.121481866
000330 f0 c0 aa 3d ef bb 6a 3d 4c 43 3f be 6f 44 01 3d
       0.08337581 0.057308134 -0.18678015 0.031559404
000340 30 75 00 3d 2d d8 db bb 2c cc 01 3e 06 f5 02 be
       0.03136176 -0.00670912 0.12675542 -0.12788782
000350 76 0f be 3c d0 f5 ca 3d 8e 2d 05 be 4e 31 3e 3e
       0.023200732 0.09910166 -0.13005659 0.18573496
000360 91 52 8e bd f4 60 2b 3d e6 d7 3a 3e 62 86 af 3c
       -0.06949342 0.04184051 0.18246421 0.021426383
000370 a9 ca fc bd d3 80 d3 3d 19 ac 33 be bd de 99 bc
       -0.12343342 0.10327306 -0.17546119 -0.018782968
000380 fb 5d 0e 3e 6b 37 18 3e 6d 6a 0e be 74 4d 12 bc
       0.13903038 0.1486489 -0.13907786 -0.008929599
000390 52 13 db bd d5 e8 3d bc ab d5 07 3e c6 33 48 3e
       -0.106970444 -0.011591156 0.13265102 0.19551
0003a0 37 7d 85 bd ac 95 20 3e 07 2e eb bc 88 b2 4e bd
       -0.065180235 0.15682095 -0.028708471 -0.05046323
0003b0 68 c5 23 3e 5b b2 e6 bd 41 6d 7a ba 66 17 16 be
       0.15993273 -0.11264487 -0.0009553023 -0.14657363
0003c0 4c a3 e2 3c dd ba 7d bd 49 09 f1 3d a2 83 2c 3d
       0.027665757 -0.061945785 0.11769349 0.042117722
0003d0 6e 2f 1e be df a5 57 bd b4 60 8a 3d 80 2d 49 3d
       -0.1544778 -0.05264842 0.06756726 0.049115658
0003e0 6d 13 c4 3d ff 69 78 3d db 11 04 be fc db 24 3d
       0.09574018 0.06064796 -0.12897436 0.040248856
0003f0 52 fb 26 be b1 cf 3d be 13 e4 a0 3d 6c 2e 3f 3e
       -0.16306809 -0.18536259 0.07856002 0.18670052

net.master.2.bias f4 [32]
000000 2d 31 2d be 6b ef 69 bd c7 6a 47 3e 68 a6 81 be
       -0.1691329 -0.057113092 0.19474326 -0.2532227
000010 7a ee a5 bb c4 10 98 bd bc bb a2 bc d0 29 42 3e
       -0.005063829 -0.07425073 -0.01986491 0.18961263
000020 46 ef 46 3c 1d 4b dd 3d d5 25 fe bc d6 b0 e7 bd
       0.012142008 0.10805342 -0.0310239 -0.11313026
000030 1f 13 c6 3d 51 39 25 bd 31 3e ad bd f3 50 e1 bd
       0.09671616 -0.040337864 -0.08459128 -0.11001768
000040 c3 fa 11 bd 5a 04 30 3e 24 d1 af 3c 61 1b 11 be
       -0.035639536 0.1718916 0.02146203 -0.141706
000050 75 95 c1 be 05 08 72 be 69 64 54 3e 55 0a 20 be
       -0.3780934 -0.23635872 0.20741428 -0.15628941
000060 1a 52 e5 bd df 7f 92 3c cd 12 6e be 14 5d 13 be
       -0.111973 0.01788324 -0.2324936 -0.14390975
000070 81 98 a2 3d 9d f5 ca bc 7c f9 6a be 78 b3 39 3e
       0.07939244 -0.02477532 -0.22946733 0.18134868

net.master.4.weight f4 [32, 32]
000000 4b ab e8 3c 38 cf 26 3e ea 36 3d 3d 3f b7 41 3e
       0.028401991 0.16289985 0.04619495 0.18917559
000010 87 bf 25 bc 23 b8 88 bd 3e 83 3b bd 66 19 68 3d
       -0.010116464 -0.06675746 -0.04577946 0.056664847
000020 c6 53 47 be 9a 95 a5 3b db 85 b2 bd 58 fb f1 3d
       -0.19465551 0.0050532343 -0.08716937 0.11815518
000030 1e 7e de bc 93 97 92 3e 80 4c b3 3e e3 f1 04 3e
       -0.027159747 0.28631267 0.35019302 0.12982897
000040 18 38 c1 bd 5c 68 40 be 08 48 14 3e 1b 8d 96 3d
       -0.09434527 -0.1878981 0.14480603 0.073511325
000050 c5 e6 5f 3f 52 03 98 3e 84 95 c7 bd a4 4a 3d 3e
       0.874615 0.29690033 -0.09745315 0.18485504
000060 c5 ab a6 3e ee c0 db 3b 73 c9 4a 3f 5d 38 b5 3e
       0.32552925 0.0067063486 0.7921364 0.35394564
000070 4b e7 ab be 09 66 7d 3e d6 33 c6 3e e7 f6 7b be
       -0.335749 0.24745955 0.38711423 -0.24605905
000080 2c 20 0e be 1a a9 8a bd 4e be 06 be a4 4a 63 bd
       -0.1387946 -0.06770535 -0.13158533 -0.055491105
000090 ca f5 ce 3d 10 7b 25 be 0b 9b 05 be ae 8a aa bd
       0.10105474 -0.16160226 -0.13047425 -0.08327232
0000a0 6a 1a d8 3d 9f ee 1d 3e 88 da 50 bd 27 4c 5f be
       0.10551913 0.15423058 -0.050989658 -0.21806394
0000b0 69 49 23 3e cf 05 22 3e 2a cb 9a bc 95 d2 c1 3d
       0.15945973 0.15822528 -0.018895704 0.094639935
0000c0 a7 88 14 3e f3 ae b4 3d 51 b5 94 ba 95 79 3a 3e
       0.14505254 0.088224314 -0.001134554 0.18210442
0000d0 f9 45 53 bd cc dd 2f 3e 20 e4 fb bd 81 88 b1 bd
       -0.051580403 0.17174453 -0.12299371 -0.08668614
0000e0 fb a2 d7 3c 1f d7 54 3d 33 9c 1b be f2 99 84 3e
       0.026322832 0.051962968 -0.15196304 0.258987
0000f0 9f f6 71 bd 2e 29 04 3e c6 8b 01 3e e3 87 51 be
       -0.059073087 0.12906334 0.12650976 -0.20461993
000100 61 c0 c0 bd d9 68 20 bd bc 3b 3a 3e a4 7a e2 3d
       -0.09411693 -0.03916249 0.1818685 0.11058548
000110 07 4e 1f 3e 25 82 0b be 31 49 1e 3e b1 58 0a be
       0.15557109 -0.13623865 0.15457608 -0.13510396
000120 9f 37 18 3e ca 74 89 3c 58 89 86 bc 1a fd 79 3d
       0.14864968 0.016779322 -0.016422912 0.061032392
000130 96 e5 82 3d d7 87 a6 bd b0 7f 99 bd d4 91 a1 3d
       0.06391446 -0.08131378 -0.074950576 0.07889143
000140 25 e4 4c bd 52 6c 09 3e 7b 0b 29 3e 56 e6 46 be
       -0.050022263 0.13420227 0.16508286 -0.19423804
000150 f0 5b c1 bd 1c 4e 40 be 63 89 ee bd 25 5e 6e be
       -0.09441364 -0.18779796 -0.11647298 -0.23278101
000160 b3 ba 02 be 6d ea 8d bd 03 b1 8e be 53 61 87 be
       -0.12766533 -0.06929479 -0.27869424 -0.2644144
000170 6d 16 09 3e 64 b7 26 be 48 1b b4 bd 4b b9 07 3e
       0.13387461 -0.16280895 -0.08794266 0.13254277
000180 d6 1c b5 3c 4c f4 cb 3d 5d 96 56 be 25 d9 0a be
       0.022108477 0.09958705 -0.20955797 -0.13559397
000190 2a c3 26 be c8 30 44 be 39 44 2a bc a2 d9 ce 3d
       -0.16285387 -0.19159234 -0.010392242 0.10100104
0001a0 02 c4 9c 3d cc fd f1 bd 51 b9 10 be 4f ea 4a be
       0.07654573 -0.11815986 -0.14133193 -0.19815944
0001b0 90 92 b3 3d 6a 78 15 bb 74 a2 31 3e a5 5b c7 3d
       0.08768189 -0.0022807368 0.17347127 0.09734277
0001c0 bf 88 d1 bd 84 7f c6 3c c5 11 4d be 73 c0 da 3c
       -0.1023116 0.024230726 -0.2002631 0.026703095
0001d0 b2 dc aa bc 07 04 3f 3e 46 62 a8 3d 3d b4 6e bd
       -0.020857189 0.1865388 0.08221869 -0.058277357
0001e0 7c 7a 0c 3e 9e 49 f8 bd 63 37 20 3e da 23 77 3b
       0.13718599 -0.12123416 0.15646128 0.0037710578
0001f0 41 5f db 3c bf ed 4d 3c dd 2a d9 bc c2 ff c2 3c
       0.026778819 0.01256889 -0.026509697 0.023803595
000200 d2 3f 5e bd 63 d5 f6 3d fa 69 00 be 2b 1d 6e be
       -0.054260083 0.12052419 -0.12540427 -0.23253314
000210 fb fc 6e bc 75 59 e8 3d 77 a3 36 3d a4 87 ac 3c
       -0.014586682 0.113451876 0.044589486 0.021060772
000220 d2 99 01 3d d1 14 55 be 47 33 93 bd 10 ce 3c be
       0.031640835 -0.20808722 -0.07187515 -0.18437982
000230 76 a9 75 bd 5c 5e 1e 3e 4e e8 c4 bc 9f 32 6a 3b
       -0.059976064 0.15465683 -0.024036553 0.003573574
000240 ad a4 b9 3c ba f6 5f bd a9 d4 67 3b ce 0e b8 3d
       0.022661531 -0.054678656 0.0035374558 0.08987199
000250 82 e2 ca 3d aa f5 0b 3d b8 50 f9 bd 60 5f 01 3e
       0.09906484 0.03416983 -0.12173599 0.12634039
000260 f0 99 6a 3d 3d 9e 80 3c 79 ab 74 3c ec 1a eb 3d
       0.057275712 0.015700454 0.01493346 0.11479744
000270 c5 48 e8 3d 2d cf 0d 3e 96 72 76 3e 3f 3b 9e 3d
       0.11342005 0.13848563 0.24067149 0.07726144
000280 04 79 dc 3d d8 ca a5 3d b3 84 76 be 0d 85 a1 bd
       0.107652694 0.0809533 -0.24074058 -0.078867055
000290 da 0a 13 be f1 8a 26 3c b5 33 95 bd 67 fa 7f be
       -0.14359608 0.010164962 -0.07285253 -0.24997865
0002a0 70 b6 f9 bd ee 8e fb 3c bb 7c 77 be 34 64 92 3d
       -0.12193 0.030707803 -0.24168675 0.071480185
0002b0 55 bf 9f bd ca a7 81 3e ca a9 57 3e a0 63 26 bd
       -0.078001656 0.25323325 0.21060863 -0.040622354
0002c0 fc 21 82 3d 05 2f 1a bc 43 13 47 bd df f5 18 3e
       0.06354138 -0.009410624 -0.048602354 0.14937542
0002d0 ea 90 2a bd e3 ab c6 bb ee 17 74 be 2a ae 2c bd
       -0.041642107 -0.006062971 -0.23837253 -0.042158283
0002e0 4a 93 80 3d 25 0f 05 be a0 7a 58 bd 7c 52 27 3e
       0.06278093 -0.12994058 -0.05285132 0.16340059
0002f0 b0 dd 5e 3d ee 1a 59 bc a7 4a 17 bd 61 eb 5f bc
       0.054410636 -0.013251049 -0.03693643 -0.013666959
000300 f6 a2 e4 3d d4 3d 97 3e 48 38 99 bd a5 ef 1e 3e
       0.11163895 0.2953936 -0.07481438 0.15521105
000310 a8 19 f8 3d 94 4f 50 bd 01 31 31 3e cd 8f 92 3d
       0.121142685 -0.05085714 0.1730385 0.07156334
000320 50 86 42 bc 83 b2 1c 3d 93 cc 21 be f0 9e 14 3d
       -0.011872843 0.03825618 -0.15800695 0.036284387
000330 93 3e 06 3c 4e 78 9d 3e 9f 49 a0 3e 88 26 8e 3e
       0.00819363 0.30755848 0.31306168 0.27763772
000340 ac 26 20 bd 26 33 68 3c 07 a9 03 3e 6b 73 8e 3d
       -0.03909938 0.014172351 0.12857448 0.06955608
000350 23 5a 4f 3f b2 60 59 3e 9f 00 19 3e 57 45 cf 3e
       0.8099691 0.21228293 0.14941643 0.4048259
000360 d6 e4 6e 3e ca 90 b1 3d ad 1a 4b 3f f9 c6 01 3f
       0.23329481 0.086701944 0.7933758 0.50694233
000370 a9 2e bd be 74 5f f2 3e 93 d1 8c 3e 97 af 9b bc
       -0.3694966 0.4733845 0.27503642 -0.019004626
000380 24 4e 9a bc f7 b8 21 3e 3f f5 34 be 3f 22 3d be
       -0.018836088 0.15793215 -0.17671679 -0.18470095
000390 64 db 1c 3d c4 38 50 be 1f 05 8b 3b 54 a8 e3 bd
       0.038295165 -0.20334154 0.004242554 -0.111160904
0003a0 09 f5 6f be 7e 55 71 be 83 41 73 be ad 74 ea 3b
       -0.23433317 -0.23567769 -0.2375546 0.007155022
0003b0 02 7f 5a be 0a e4 77 3e be 85 e4 3d 47 73 e6 3c
       -0.21337512 0.24208084 0.11158322 0.02813114
0003c0 4c 21 1e bd 42 80 0d bd d7 30 1d be 78 e1 93 3d
       -0.038605973 -0.034546144 -0.15350662 0.07220739
0003d0 73 47 17 bd 8c ca a0 3c 40 7e 8a bd d0 d5 83 3e
       -0.036933374 0.019627832 -0.067623615 0.25749063
0003e0 b3 98 ff 3c 7d 4a ed bd 9e 58 c0 3b d7 2a f2 bc
       0.031200742 -0.11586473 0.005869939 -0.029561443
0003f0 9c 1f c8 3d 17 d2 2d 3e 4b 57 d9 3d 55 5a 1b bd
       0.09771654 0.16974674 0.10612353 -0.037927944

net.master.4.bias f4 [32]
000000 84 0e 23 be 5d 6f 3c be 44 99 9d 3d 5d e2 3e bd
       -0.15923506 -0.18401857 0.07695249 -0.046602596
000010 ad b5 1c be 1d 2f 3b be 08 93 21 be e6 a3 77 3d
       -0.15303679 -0.18279691 -0.15778744 0.06045904
000020 7d 8d f9 bd 00 04 94 bd 74 3a d3 3c dc ce 6c bd
       -0.1218519 -0.072273254 0.025784709 -0.057814464
000030 93 57 2f 3d 8e e5 1a be 4a 9a 8c 3d db 00 1c be
       0.042808127 -0.1512663 0.06865366 -0.15234701
000040 1f 1a 45 3e 66 e3 c3 3d e5 17 2f 3e 02 d0 c0 bd
       0.19248246 0.09564857 0.17098959 -0.09414674
000050 a4 25 c8 bd 88 15 38 be 04 22 24 bd 6e fb 5e 3d
       -0.097728044 -0.17976964 -0.040071502 0.054439
000060 43 cb c9 3d 5b 11 4f be bb 28 52 3e b7 ae ca 3c
       0.09853222 -0.20221464 0.2052335 0.024741514
000070 4f 15 8d bd 2a 06 01 be da bc 6c 3e 8d ee 12 3e
       -0.0688883 -0.12600008 0.23118916 0.14348812

net.master.6.weight f4 [1, 32]
000000 52 10 0c be 9d 8b 39 bd 0a f3 4f 3e a9 e2 a4 bd
       -0.136781 -0.04529916 0.20307556 -0.080510445
000010 b6 f4 90 bd 2f 44 ec bd 02 64 31 bf 61 ba be bd
       -0.07077925 -0.115364425 -0.69293225 -0.09312893
000020 3d fb c8 bd cb 52 48 be 3d 36 e2 3d cd 11 69 3d
       -0.09813545 -0.19562833 0.110455014 0.05690174
000030 c7 19 f9 bd 45 ad 29 be 19 08 28 3d 7e d6 3c be
       -0.1216312 -0.16570003 0.041023348 -0.18441197
000040 dc 0d c7 3d 7a 92 30 be 1c 64 b1 3d 14 b5 45 be
       0.0971944 -0.17243376 0.086616725 -0.19307357
000050 57 41 3d 3e 00 b5 14 be 94 49 b3 3d b5 77 2c 3e
       0.18481956 -0.14522171 0.08754268 0.1684254
000060 f9 44 10 be 29 7f 2f be bc cc d1 3c 0d e0 db bd
       -0.14088811 -0.17138352 0.02561032 -0.10736094
000070 33 a2 26 3e 5a 69 2b be 60 54 05 3e 70 71 3e 3e
       0.16272812 -0.16739407 0.13020468 0.1859796

exp_avg f4 [32, 4]
000000 df d7 3c 3a 47 09 4c 3a 30 a8 12 3a 88 1f 0c 3a
       0.0007203798 0.0007783365 0.000559452 0.00053452747
000010 f5 8f 53 bb d2 10 cb ba 8d 0a b8 ba 51 c0 bb ba
       -0.003228185 -0.0015492684 -0.001404123 -0.0014324283
000020 2b ad 28 38 71 9d bb 37 f1 18 ed 37 9c 1a f9 37
       4.0215597e-05 2.2365452e-05 2.8264216e-05 2.9695504e-05
000030 5a f9 00 b9 b5 0e 12 37 b5 3d fa 38 b0 93 9d 38
       -0.00012299922 8.705702e-06 0.00011932423 7.513852e-05
000040 5c c5 01 3c 10 c6 8a 3b f7 55 4c 3b f5 84 58 3b
       0.007920589 0.0042350367 0.0031179169 0.0033038233
000050 17 06 93 36 5c ed 8f 37 61 60 3b 36 34 24 8b 37
       4.3816503e-06 1.7157457e-05 2.7921271e-06 1.658695e-05
000060 fe d1 6c 3b 19 09 06 3b 7a 2e fa 3a 3a a3 f3 3a
       0.0036135907 0.00204522 0.0019087337 0.0018588074
000070 51 20 b2 bb 78 ba 3a bb 9a 24 35 bb 04 d3 2f bb
       -0.0054359813 -0.0028492492 -0.0027640224 -0.0026828656
000080 be 2c 05 b9 a6 d3 ef 37 bb 6e 2e 38 fa 49 44 38
       -0.00012700536 2.8589577e-05 4.158796e-05 4.6798938e-05
000090 71 ab 04 bc 00 23 89 bb ae 70 7e bb ba 8c 7c bb
       -0.008097515 -0.0041850805 -0.0038824487 -0.0038536028
0000a0 50 85 4a ba 8e f8 a3 b9 d7 0e e1 b9 7c 1a eb b9
       -0.00077255536 -0.0003127497 -0.000429264 -0.00044842425
0000b0 b2 b7 b7 b8 3a 81 8b 38 e0 74 33 39 cd ee a1 39
       -8.760336e-05 6.652107e-05 0.0001711431 0.00030886233
0000c0 25 5e 25 bb 3e a2 b0 ba 22 ff a4 ba 18 62 a1 ba
       -0.0025233116 -0.0013476086 -0.0012588243 -0.0012312559
0000d0 2d e2 37 bc 3c 92 9f bb a2 08 91 bb 39 f4 92 bb
       -0.011223358 -0.0048697274 -0.004426078 -0.00448468
0000e0 78 53 9b b9 8f 85 95 b6 52 b9 41 b7 cd 0b b4 b9
       -0.00029626093 -4.4560943e-06 -1.1546845e-05 -0.00034341068
0000f0 cc 4a 2a bb 02 2c 94 ba b2 73 83 ba a8 69 8d ba
       -0.0025984524 -0.0011304619 -0.0010028987 -0.0010788934
000100 e3 37 f4 3a c4 76 84 3a f4 cd 69 3a fb 6f 62 3a
       0.0018632378 0.0010106196 0.0008918934 0.0008637902
000110 eb f9 a6 bb b7 06 2c bb a0 f1 17 bb 45 7b 17 bb
       -0.0050957105 -0.002624912 -0.0023184791 -0.0023114246
000120 1f 71 21 bb 23 87 84 ba c2 03 6c ba c2 5c 98 ba
       -0.0024634076 -0.0010111075 -0.00090032455 -0.0011624324
000130 cb d8 6a bc 26 b7 a4 bb 6a 9a ba bb 64 be 01 bc
       -0.014333914 -0.005026716 -0.005694677 -0.007918928
000140 cb e5 48 b9 83 1a 64 ba 0c a1 12 ba 61 73 a6 b9
       -0.00019159091 -0.00087014603 -0.0005593456 -0.0003174795
000150 9d 14 3e bb 85 d5 c3 ba de ff c6 ba 33 3d c7 ba
       -0.0029003986 -0.0014940953 -0.0015182456 -0.0015200734
000160 93 d6 30 bb ec 21 19 39 aa a9 2d 3a 01 fc ba ba
       -0.0026983365 0.00014603854 0.0006624708 -0.0014265777
000170 94 82 b7 3a 50 57 56 3a 11 40 34 3a 22 62 30 3a
       0.0014000707 0.0008176463 0.0006876002 0.000672849
000180 40 a0 3f 3a 97 dd d1 39 81 b5 f8 39 6d 07 fa 39
       0.0007309951 0.00040028684 0.00047437477 0.00047689248
000190 84 a6 19 bc da d0 99 bb 25 a1 8b bb 4c 4a 56 bb
       -0.009378079 -0.0046940865 -0.0042611533 -0.0032698093
0001a0 4e 7d 9c ba c6 73 2e ba 1f d5 0f ba da 57 09 ba
       -0.0011939199 -0.0006654825 -0.00054867746 -0.0005239226
0001b0 8c f7 fa b9 d1 70 57 ba f1 11 c4 b9 c7 b8 84 ba
       -0.00047868153 -0.000821841 -0.000373974 -0.0010125869
0001c0 30 a5 f8 3b df e4 9a 3a b2 e4 fc 3a ef 4c 2a 3b
       0.0075880513 0.0011817476 0.0019294231 0.0025985797
0001d0 aa 86 38 3c b4 b1 c4 3b 72 84 c1 3b b0 a0 97 3b
       0.011262575 0.006002629 0.0059056813 0.0046273097
0001e0 89 38 1c 37 c1 f1 62 37 7a 07 38 37 09 64 7c 37
       9.311488e-06 1.3526937e-05 1.0968995e-05 1.5043662e-05
0001f0 82 f2 c2 bb 33 31 64 bb de 04 67 bb 4d 24 67 bb
       -0.0059493193 -0.0034819364 -0.0035250704 -0.003526944

exp_avg_sq f4 [32, 4]
000000 6c a4 26 3f 5c bc 7f 3e 31 78 86 3e 0d a5 8d 3e
       0.6509464 0.24974197 0.26263574 0.27664986
000010 f3 f6 b2 3e 87 9f be 3d ba c2 cb 3d 0f 2e d8 3d
       0.34954032 0.09307771 0.099492505 0.1055566
000020 72 d6 f0 38 52 cd d4 38 91 5b e2 38 0a 60 e3 38
       0.00011484035 0.00010147192 0.00010793575 0.00010842092
000030 98 7d 32 3f 46 8a 33 3e 5f 5b 3f 3e 17 88 4a 3e
       0.6972289 0.17533216 0.18687199 0.19778477
000040 79 ed 69 3c da 10 bd 3b 1c b9 bf 3b f5 53 bf 3b
       0.014277809 0.005769831 0.005850924 0.005838866
000050 a7 67 f0 34 55 fc a4 35 fe 92 43 35 fe 65 7f 35
       4.47789e-07 1.229239e-06 7.285706e-07 9.514332e-07
000060 44 88 3e 3f a1 bc 3f 3e 5d c8 4b 3e 17 6e 57 3e
       0.74426675 0.187243 0.19900651 0.2103809
000070 31 3d 4c 3e fb cf 4f 3d 27 92 5c 3d 7c 2b 69 3d
       0.19945218 0.050735455 0.05385032 0.056926236
000080 9e 44 88 39 81 8d 6f 39 bf d4 78 39 91 52 90 39
       0.00025991065 0.0002284553 0.00023730377 0.00027527337
000090 3e ad e4 3c 38 47 1a 3c 65 94 22 3c 45 1e 2b 3c
       0.02791464 0.009416394 0.009923075 0.010444229
0000a0 38 96 5a 3d 2d 28 6c 3c 40 9f 7b 3c aa 60 85 3c
       0.053365916 0.0144138755 0.015357792 0.016281445
0000b0 82 e3 f5 38 2b 16 f0 38 f2 6e 15 39 ba e3 29 39
       0.00011724887 0.00011448221 0.00014251078 0.0001620193
0000c0 9b 42 f2 3e 5c ca ef 3d af 08 fe 3d 7c 6e 06 3e
       0.4731644 0.11708519 0.12404 0.13128084
0000d0 e1 0b 45 3c 81 13 89 3b 4d fe 8d 3b b7 e0 91 3b
       0.012026758 0.0041832332 0.0043332935 0.004451837
0000e0 b7 97 99 3a 98 71 31 3a fa a1 43 3a b2 43 63 3a
       0.0011718188 0.0006768941 0.0007462796 0.000866945
0000f0 49 b3 57 3f 91 1f 5d 3e 91 da 6a 3e 2c 4b 78 3e
       0.8425794 0.21594073 0.22934939 0.24247426
000100 41 7c b9 3d a9 24 a7 3c 87 3f b3 3c ee 73 bd 3c
       0.09056903 0.020403223 0.021880878 0.023126569
000110 d3 50 11 3f 18 d4 15 3e 4b d4 1e 3e a6 ec 27 3e
       0.5676395 0.14631689 0.15510671 0.16398868
000120 59 78 af 3a c9 0a 96 3a b7 09 bf 3a 82 c8 c6 3a
       0.0013387307 0.0011447306 0.0014575039 0.0015165957
000130 d6 8b 81 3e fa ae 0a 3d 67 38 10 3d 46 66 17 3d
       0.25302 0.033858277 0.03521004 0.03696277
000140 ff a4 43 3a 74 4a 57 3a f7 b2 55 3a e5 7f 5e 3a
       0.0007463246 0.00082126935 0.0008151973 0.00084876857
000150 85 d4 86 3d 2d 74 8b 3c e6 db 92 3c 03 b3 9b 3c
       0.06583504 0.01702317 0.017927121 0.019006258
000160 6b 1e 55 3c 36 03 28 3c 01 ea 40 3c 21 00 52 3c
       0.0130077405 0.010254672 0.011774541 0.012817414
000170 5e 73 27 3e b6 68 1b 3d d0 73 26 3d 20 7d 30 3d
       0.16352603 0.037941657 0.04063779 0.04308808
000180 96 08 69 3d aa a6 5b 3c cf ee 68 3c 1b e2 76 3c
       0.056892954 0.013406435 0.014217093 0.015068556
000190 3e c5 2e 3d 62 41 15 3c 5b c2 1c 3c 94 da 23 3c
       0.042668574 0.009109827 0.009567822 0.010000844
0001a0 8c f9 73 3d 81 a7 2c 3c b0 15 38 3c 69 d9 42 3c
       0.05956416 0.010537983 0.011235639 0.011892655
0001b0 f2 3f 15 3c d3 27 af 3b 0d 26 a9 3b e9 3d be 3b
       0.009109484 0.0053453236 0.0051620067 0.00580572
0001c0 42 5f 1e 3e bd 7b 08 3d 46 55 11 3d 03 5a 19 3d
       0.15466025 0.03332113 0.035481714 0.037439357
0001d0 58 9d 1c 3c 3b 71 20 3b d7 a9 20 3b 80 37 1c 3b
       0.009558998 0.0024481553 0.0024515295 0.0023836792
0001e0 c1 d9 70 35 8f 5a 93 35 9c 56 8a 35 30 d6 93 35
       8.972384e-07 1.097871e-06 1.0307008e-06 1.101469e-06
0001f0 1a 99 d3 3d 06 ba a3 3c 7f e3 a7 3c f2 b7 ad 3c
       0.10331936 0.019986164 0.02049422 0.021205876

exp_avg f4 [32]
000000 b4 21 ec b6 91 7b 50 b9 f9 13 13 38 c7 fc 58 37
       -7.0372716e-06 -0.00019882458 3.5066132e-05 1.2933458e-05
000010 88 92 aa 39 cf e4 31 37 51 96 7f 39 92 fe 05 ba
       0.000325341 1.0603296e-05 0.00024374692 -0.00051114813
000020 f8 1f 23 38 74 7f 16 ba 0d 13 d6 b8 0a 50 8e 38
       3.8892e-05 -0.0005741038 -0.00010207864 6.785996e-05
000030 9a 83 7e b9 73 56 51 ba 19 95 de 36 ca 8b 25 b9
       -0.00024272353 -0.0007985599 6.633473e-06 -0.00015787702
000040 33 18 e2 38 67 8e b9 b9 96 81 b5 b9 73 c0 5f ba
       0.00010781027 -0.00035392048 -0.0003461956 -0.0008535452
000050 a9 ea 61 b8 b9 33 96 b9 eb 40 dd b8 87 74 9a 38
       -5.3862725e-05 -0.00028648766 -0.00010550193 7.364997e-05
000060 dc 96 af 38 59 47 04 ba 0b c0 92 b8 25 2e cd b8
       8.37275e-05 -0.0005046032 -6.997593e-05 -9.783757e-05
000070 3b 3a 43 39 be 30 42 3a 54 04 49 37 5e a7 0d ba
       0.00018618342 0.0007407776 1.1981541e-05 -0.0005403663

exp_avg_sq f4 [32]
000000 50 3f 4d 3c 4a 93 8f 3b 6b 98 45 37 4b 80 05 3c
       0.012527302 0.004381572 1.1777603e-05 0.008148263
000010 26 90 ac 39 65 22 f1 33 87 28 0a 3c 31 78 12 3b
       0.00032913795 1.1228693e-07 0.008432514 0.0022349472
000020 75 f9 f5 37 a0 7e f2 39 df 99 2e 3a a3 cf 81 37
       2.9322438e-05 0.0004625218 0.0006660502 1.5474687e-05
000030 42 a1 a9 3b ef 6c 60 39 64 b0 7e 38 43 56 21 3c
       0.005176694 0.00021402886 6.0722596e-05 0.009847227
000040 4a 48 7d 3a d9 a0 d9 3b e9 59 b8 38 99 ba bb 3a
       0.0009661956 0.006641489 8.790551e-05 0.0014322578
000050 13 64 a4 38 19 8a 4c 3a 69 c5 74 3a 22 3e e0 3a
       7.83877e-05 0.00078025606 0.0009337278 0.0017108361
000060 38 b7 24 3a 40 27 d0 39 70 6e d9 39 43 26 c4 39
       0.0006283405 0.00039702095 0.00041471748 0.0003741254
000070 a5 93 c7 3a c6 46 03 39 1d 43 37 34 4e dc 6f 3a
       0.0015226497 0.00012519499 1.7067619e-07 0.00091499544

exp_avg f4 [32, 32]
000000 86 25 0b b9 e3 ae 14 b9 57 69 2f 38 bb 59 37 b9
       -0.00013270052 -0.0001417953 4.1821357e-05 -0.00017485667
000010 e8 1b a8 b8 7b b9 24 38 6b cb 91 b7 f9 d3 90 b9
       -8.016062e-05 3.927339e-05 -1.738007e-05 -0.00027623752
000020 f4 1b 2e 38 e2 3c d7 b8 92 a8 92 b7 b4 31 3d 38
       4.1510866e-05 -0.00010263339 -1.7483053e-05 4.51074e-05
000030 a6 1a a0 b9 c5 c6 4f b9 28 2b 1f 38 7d c5 f9 b9
       -0.00030537433 -0.00019815106 3.7948746e-05 -0.0004764012
000040 42 c7 8a b9 ee c7 a0 b9 e1 a9 e6 38 4e f9 90 b7
       -0.0002646987 -0.00030666537 0.00010998897 -1.728223e-05
000050 2b 50 d2 37 1a f4 04 b8 02 29 2c 38 70 2e bf b9
       2.5071282e-05 -3.169859e-05 4.1046187e-05 -0.00036464958
000060 f9 e4 57 b9 93 f5 16 b9 64 3c 60 b9 e6 33 af 37
       -0.00020589297 -0.00014396598 -0.00021384802 2.0885793e-05
000070 88 96 90 38 ce f8 42 b8 46 71 24 38 1a 55 3b b9
       6.894494e-05 -4.648492e-05 3.920614e-05 -0.00017865413
000080 a8 8f 54 37 37 6f 03 37 a2 a3 34 b7 3f 33 0d 37
       1.2669632e-05 7.834103e-06 -1.0766935e-05 8.416187e-06
000090 48 ac 28 37 21 cd 61 b7 cd 6d d1 36 56 7e 7b 37
       1.0053693e-05 -1.3458805e-05 6.241468e-06 1.4990181e-05
0000a0 d1 bd 45 b7 3f 64 3a 37 73 e9 45 37 2c b4 4f b7
       -1.178631e-05 1.1109804e-05 1.1796469e-05 -1.2380111e-05
0000b0 98 c4 95 37 bd 5f 42 37 cf 51 2a b7 19 0e af 37
       1.785373e-05 1.1585592e-05 -1.0151837e-05 2.086819e-05
0000c0 03 fe 56 37 43 cd 30 37 9c 2d 8c b6 b6 45 e1 b6
       1.2814536e-05 1.0538209e-05 -4.1776348e-06 -6.713638e-06
0000d0 33 4e 1c b7 b2 c8 52 37 38 76 d0 b6 78 8a a7 37
       -9.316532e-06 1.2563703e-05 -6.2126455e-06 1.997243e-05
0000e0 9f c3 88 37 6d 3f c8 b5 cc 4d 58 37 fc 97 df b6
       1.6303557e-05 -1.491962e-06 1.2892717e-05 -6.663611e-06
0000f0 e4 d4 70 36 b3 34 85 37 e3 4a 60 b7 3b 5f ed 36
       3.5886706e-06 1.5879375e-05 -1.3368876e-05 7.0742367e-06
000100 0d e3 15 3a 6e 0a 1f 3b b8 ee a3 b9 dd 60 ac 3a
       0.0005717732 0.0024267691 -0.00031267642 0.0013151426
000110 1f 7e a3 39 4b f2 97 b9 af 67 8e 39 5e 7e ea 3a
       0.0003118375 -0.00028981487 0.000271616 0.0017890444
000120 70 de 9e b9 31 bb 3c 3b 16 c8 c4 3a fb ca a1 b9
       -0.00030301837 0.0028798098 0.0015013244 -0.00030859545
000130 d0 41 27 3b 42 bb bd 3a ed 85 9f b9 48 97 2f 3b
       0.0025521405 0.0014475363 -0.00030426626 0.0026793052
000140 22 f8 a6 3a f3 97 a0 3a 87 0f 86 b9 fe e3 47 39
       0.0012738744 0.0012252316 -0.0002557004 0.00019063053
000150 04 29 96 b9 31 e7 f5 3a 27 88 9a b9 58 17 0f 3b
       -0.00028640789 0.0018760917 -0.0002947461 0.0021833982
000160 35 24 a6 3a 84 ae 26 3a 5a 04 a0 3a 1d 10 95 b9
       0.0012675585 0.00063584023 0.0012208328 -0.000284315
000170 a5 df 27 38 5d 23 26 3a 91 c7 98 b9 f4 64 97 3a
       4.0024188e-05 0.0006337667 -0.00029140388 0.0011550472
000180 e0 2b e2 b9 cc 73 0d bb fe e4 8a 39 96 f5 9b ba
       -0.00043138769 -0.0021583913 0.00026492024 -0.0011898752
000190 32 8c a2 b9 09 c7 88 39 8a e2 93 b9 39 3e bd ba
       -0.00031003501 0.00026088234 -0.0002820681 -0.00144381
0001a0 6c 2d 8a 39 8e 4f 23 bb cf 7b b1 ba 34 c6 8e 39
       0.00026355253 -0.0024919244 -0.0013540926 0.00027232023
0001b0 46 d5 0e bb 96 51 8e ba 77 e9 84 39 b7 19 17 bb
       -0.0021794601 -0.0010858055 0.00025350947 -0.0023056099
0001c0 47 66 89 ba 5c 6b 87 ba 8d d2 75 39 54 82 76 b9
       -0.0010482752 -0.0010331678 0.00023443457 -0.00023508939
0001d0 fa 07 7b 39 48 14 d5 ba 2a 81 73 39 45 f8 f3 ba
       0.00023940197 -0.0016256655 0.00023222403 -0.0018613419
0001e0 7f e6 7d ba 01 13 f9 b9 bb 33 82 ba 7e ab 6f 39
       -0.00096855307 -0.0004750714 -0.000993363 0.00022856702
0001f0 6a 70 8c b8 26 73 14 ba af e1 88 39 25 bf 8c ba
       -6.696659e-05 -0.00056629104 0.0002610809 -0.0010738118
000200 89 db 83 b6 f1 36 95 b8 3f 3a ce 36 4f 14 3c b8
       -3.9296615e-06 -7.115107e-05 6.146059e-06 -4.4841607e-05
000210 66 02 d7 b7 f6 28 69 37 2a df b2 b7 14 02 2d b7
       -2.5631114e-05 1.3897419e-05 -2.1323172e-05 -1.0312087e-05
000220 42 0c 23 37 4b 32 87 b8 fd b7 5d b8 54 14 5f 37
       9.718411e-06 -6.4466694e-05 -5.286186e-05 1.3296569e-05
000230 3a ed 56 b8 5a d0 b4 37 c5 4e 19 36 21 a5 7f b8
       -5.124251e-05 2.1554693e-05 2.2844627e-06 -6.0950526e-05
000240 10 3a 7d b7 cc 50 a9 b7 ca c3 68 37 68 87 2a b8
       -1.5093494e-05 -2.0183994e-05 1.3873863e-05 -4.0657265e-05
000250 09 96 1e 35 82 34 3d b8 0e 66 d9 b6 b4 ee 3e b8
       5.9077917e-07 -4.5110013e-05 -6.4789847e-06 -4.552184e-05
000260 ff 32 10 37 0c f4 6c 36 80 a8 2d b7 d9 94 c8 b6
       8.594942e-06 3.5308794e-06 -1.03508355e-05 -5.9777926e-06
000270 3c 3e 38 b8 37 6b 23 b8 5d 21 61 37 d7 78 2e b8
       -4.392698e-05 -3.896208e-05 1.3418813e-05 -4.1597374e-05
000280 09 07 f9 39 b0 fd 04 3b 14 05 89 b9 79 17 92 3a
       0.00047498223 0.002029281 -0.0002613446 0.0011145911
000290 f7 c3 91 39 36 08 80 b9 99 48 78 39 9e e6 c2 3a
       0.0002780256 -0.0002442018 0.00023678168 0.0014869755
0002a0 ac 2f 85 b9 c5 9a 1c 3b 12 c9 a4 3a 2c 9a 87 b9
       -0.00025403255 0.002389596 0.0012572131 -0.00025864074
0002b0 0d 6d 0b 3b cf d4 9b 3a 3f 37 85 b9 71 04 12 3b
       0.0021274716 0.0011888983 -0.00025408898 0.002228048
0002c0 c4 12 8b 3a 28 99 86 3a 38 e6 5b b9 bc 77 2b 39
       0.0010610451 0.0010269033 -0.0002097123 0.00016352435
0002d0 21 63 7b b9 7c 82 cc 3a 8a 78 7e b9 5c 5f ee 3a
       -0.00023974154 0.0015602852 -0.00024268232 0.0018186378
0002e0 dc 23 89 3a 7b 84 06 3a 33 70 85 3a 67 7d 78 b9
       0.0010462957 0.00051314355 0.0010180533 -0.00023697839
0002f0 8d e4 b7 37 09 45 07 3a 53 a2 80 b9 45 b2 7f 3a
       2.1921727e-05 0.00051601283 -0.00024535003 0.0009754042
000300 e6 9f 07 b9 0f b0 27 ba ee 6e a9 38 4f e7 b7 b9
       -0.0001293417 -0.0006396779 8.07921e-05 -0.00035076818
000310 89 98 d5 b8 7e 9d b5 38 9e e1 bd b8 62 74 d4 b9
       -0.00010185043 8.660088e-05 -9.054247e-05 -0.00040522503
000320 25 a9 af 38 b6 9d 40 ba c8 be d7 b9 65 26 bd 38
       8.376156e-05 -0.00073477195 -0.0004115014 9.019374e-05
000330 7f 97 26 ba a5 41 99 b9 07 4d 9a 38 c8 b9 31 ba
       -0.0006354972 -0.00029231343 7.35764e-05 -0.0006779698
000340 46 cf 9c b9 3e 0f 9a b9 7c 8d b8 38 c6 28 c6 b8
       -0.0002990907 -0.00029384525 8.800157e-05 -9.4489704e-05
000350 32 9e 8e 38 d6 92 fd b9 34 60 82 38 10 02 0f ba
       6.800554e-05 -0.00048365322 6.216802e-05 -0.00054553244
000360 40 a7 8d b9 b1 de 0c b9 80 2a 93 b9 76 ce 73 38
       -0.00027018227 -0.000134344 -0.0002806969 5.8127996e-05
000370 ff f5 9c b8 5e 77 53 b9 d5 f0 b4 38 cd f0 a3 b9
       -7.48448e-05 -0.00020166996 8.627927e-05 -0.00031269193
000380 d1 96 b1 b8 b9 9f 32 ba 1b 42 a2 38 69 84 bf b9
       -8.4681094e-05 -0.00068139617 7.737075e-05 -0.00036529012
000390 db 5e b7 b8 37 d1 a7 38 7d 57 d0 b8 aa cb c5 b9
       -8.743788e-05 8.00215e-05 -9.934509e-05 -0.0003772651
0003a0 61 0c a5 38 b1 6f 4a ba 53 70 e4 b9 d5 3c ac 38
       7.870119e-05 -0.0007722332 -0.00043571237 8.21293e-05
0003b0 a6 ab 27 ba e1 f6 85 b9 34 d0 99 38 41 80 35 ba
       -0.0006396122 -0.00025551676 7.3343894e-05 -0.00069237134
0003c0 ab e2 93 b9 4b ae 95 b9 a6 4f a8 38 ca 3c cd b8
       -0.00028206906 -0.00028549353 8.0257e-05 -9.7864846e-05
0003d0 bf 15 93 38 e4 e2 02 ba f9 ec 89 38 3e 84 0e ba
       7.013557e-05 -0.0004992916 6.576809e-05 -0.0005436576
0003e0 f4 ec 6f b9 c2 d1 f8 b8 c3 03 88 b9 e6 ac 87 38
       -0.00022881088 -0.00011864632 -0.00025942744 6.4695065e-05
0003f0 89 4a 1c b8 e2 be 45 b9 fc 59 a7 38 d8 3f bb b9
       -3.7262715e-05 -0.00018858493 7.9799414e-05 -0.00035714987

exp_avg_sq f4 [32, 32]
000000 45 b1 5f 3b 37 d0 a8 3d e8 51 df 3a 53 71 d9 3c
       0.003413276 0.08242839 0.001703796 0.026543295
000010 f6 de c5 38 8c 23 e2 3a d0 fc 2a 3b a7 0b 1b 3d
       9.435222e-05 0.0017253025 0.002609063 0.03785291
000020 31 3d dd 3a 35 40 b1 3d 7c 9f 0d 3d 4a 60 d9 3a
       0.0016879198 0.08654825 0.034575924 0.0016584483
000030 6f a7 b2 3d 53 65 82 3b 49 cb c6 3a 77 04 b6 3d
       0.08723342 0.003979364 0.0015166785 0.0888757
000040 20 79 bb 3c 83 1d 8c 3c a5 48 54 3a d9 f4 48 39
       0.022884905 0.017103916 0.0008097983 0.00019164699
000050 d0 b8 c2 3a 9e cf 4f 3d 7c 87 8c 3a 49 e6 83 3d
       0.0014856104 0.05073511 0.001072153 0.06440408
000060 9e b9 c0 3c 94 86 4f 3b c7 d3 d3 3c 6f 90 8c 3a
       0.02352601 0.0031665908 0.02585782 0.0010724197
000070 99 18 94 3a af 3f 58 3a 3e 4b e8 3a a3 6d f8 3b
       0.0011298835 0.00082492357 0.0017722619 0.007581429
000080 2e 05 f5 38 d3 f4 a4 39 2a b0 35 38 67 4e 0f 39
       0.00011683475 0.00031462926 4.331783e-05 0.0001366675
000090 15 51 86 35 57 fe 55 38 24 c8 5a 37 cb 76 01 3a
       1.0007376e-06 5.102003e-05 1.3040411e-05 0.0004938661
0000a0 c5 b0 50 38 7a dd e0 39 41 f4 33 39 b3 be 4c 38
       4.9755694e-05 0.00042889622 0.00017161762 4.8814993e-05
0000b0 70 73 32 3a 60 07 f7 38 e7 9e 13 38 db 44 30 3a
       0.00068073627 0.000117792515 3.519552e-05 0.00067241275
0000c0 a3 5a 89 39 bc 74 32 39 c2 c3 4d 37 9e 11 bc 37
       0.00026198206 0.0001701889 1.2264531e-05 2.241955e-05
0000d0 37 b7 08 38 6a 2c a1 39 29 c3 64 37 b8 dc 18 3a
       3.259556e-05 0.00030741404 1.3635298e-05 0.00058312295
0000e0 7c 19 ea 39 09 97 05 38 0d b9 b6 39 4a 2e 97 37
       0.00044650945 3.1850333e-05 0.0003485162 1.8022158e-05
0000f0 e4 56 85 36 2b 69 23 37 4e 8d 6d 38 a1 5f ca 37
       3.9738243e-06 9.740043e-06 5.6636803e-05 2.4124807e-05
000100 17 03 3f 3d 9d 41 83 3f d2 1f bf 3c d7 f3 a8 3e
       0.046633806 1.0254399 0.023330603 0.32998535
000110 bc 28 a3 3a 03 f7 c1 3c ac de 03 3d 67 d0 f6 3e
       0.0012448053 0.023677355 0.03219478 0.48205873
000120 56 cd bd 3c 3d 1e 8a 3f e7 e0 dc 3e e6 4c ba 3c
       0.0231692 1.0790478 0.43140337 0.022741746
000130 9c 79 8c 3f 47 e3 5c 3d 16 7d a8 3c d9 7a 8f 3f
       1.0974612 0.053927686 0.020567458 1.1209365
000140 4d e7 94 3e 40 e3 5c 3e 16 b7 30 3c da 7e 66 3b
       0.29082718 0.21571064 0.010785839 0.0035170824
000150 2c b1 a5 3c 3a 84 22 3f 12 72 6a 3c f7 50 50 3f
       0.020226084 0.6348301 0.014309423 0.8137354
000160 07 5d 9c 3e 9e be 1f 3d 62 c3 a7 3e e8 57 6c 3c
       0.30539724 0.039000146 0.32766253 0.014425255
000170 90 47 62 3c f4 85 26 3c a1 35 c8 3c 40 fe c4 3d
       0.013811007 0.010163773 0.024439635 0.09618807
000180 c9 37 81 39 e2 ff f9 3a 13 4e b4 38 e9 e9 2b 3a
       0.0002464636 0.0019073451 8.597611e-05 0.00065579877
000190 3e 2f de 36 f6 b9 b8 38 ef f3 5e 38 e5 da c6 3a
       6.6216153e-06 8.8084416e-05 5.3156105e-05 0.0015171437
0001a0 a0 ad b3 38 91 cd 11 3b c1 74 5a 3a 34 4f ad 38
       8.567725e-05 0.0022247771 0.0008333438 8.2640356e-05
0001b0 5a 76 29 3b d1 37 ba 39 0b c4 9b 38 12 ac 24 3b
       0.0025857897 0.0003551827 7.427492e-05 0.0025126976
0001c0 0e 16 59 3a 2d 27 16 3a 2d 9d 02 38 a3 b4 3f 38
       0.00082811795 0.00057278835 3.1140797e-05 4.570618e-05
0001d0 47 32 97 38 94 54 b2 3a 79 67 42 38 70 b9 01 3b
       7.209606e-05 0.0013605529 4.634957e-05 0.0019794367
0001e0 11 62 98 3a 6d 45 e5 38 6b 8b 7e 3a 82 38 59 38
       0.0011625906 0.000109325025 0.0009710106 5.178946e-05
0001f0 5d a8 a1 37 c6 08 3e 38 58 5a c0 38 44 17 52 39
       1.9271096e-05 4.53077e-05 9.172101e-05 0.00020035828
000200 e5 7c 47 3c 1a e7 7d 3e e2 da bf 3b 67 c4 a4 3d
       0.012175773 0.2479519 0.0058549503 0.08045273
000210 41 32 8a 39 fa 34 c3 3b 1a d2 ff 3b ee 50 f8 3d
       0.00026358853 0.005957243 0.0078070285 0.12124811
000220 d6 ad be 3b 00 52 86 3e e4 87 d6 3d ed cd ba 3b
       0.0058190627 0.26234436 0.10475138 0.005700818
000230 79 55 8a 3e 3f b8 66 3c 73 66 a8 3b 59 47 8c 3e
       0.27018335 0.014082014 0.005139166 0.27398184
000240 4c b9 94 3d ec 5a 5b 3d 09 32 2a 3b 1c 4c 71 3a
       0.07261905 0.053553507 0.0025969765 0.00092047616
000250 ec 26 a5 3b c9 30 1f 3e f1 c8 64 3b 13 81 4d 3e
       0.0050400402 0.15545954 0.003490981 0.20068769
000260 c3 80 9f 3d bb 44 21 3c ef ff a8 3d 04 2e 6a 3b
       0.07788231 0.009843047 0.082519405 0.0035732994
000270 a2 30 5e 3b 5c 17 29 3b b7 c5 c9 3b 83 e5 b6 3c
       0.00339035 0.0025801277 0.0061576026 0.022326237
000280 09 61 ee 3c 3c 95 36 3f 05 44 7a 3c 3f e3 68 3e
       0.029099004 0.71321464 0.015275006 0.22742938
000290 6d e4 6f 3a 35 b5 7e 3c 4c f6 b8 3c e3 9c a2 3e
       0.00091511646 0.015546133 0.022578381 0.3176032
0002a0 e7 26 79 3c 42 19 3f 3f 43 4d 99 3e 87 c9 74 3c
       0.015207029 0.74647915 0.2994176 0.014940626
0002b0 9f 9e 3e 3f 87 c5 08 3d 9d da 5c 3c f7 fb 43 3f
       0.74460787 0.0333915 0.013479856 0.7655634
0002c0 cf b8 45 3e 07 e8 13 3e 56 c6 ed 3b 10 89 07 3b
       0.1930878 0.1444398 0.0072563095 0.002068106
0002d0 cd 06 5a 3c 0f db de 3e 44 01 1b 3c 7f db 0c 3f
       0.0133072855 0.43526503 0.009460751 0.55022424
0002e0 cb 02 4a 3e 4b c7 d3 3c df bb 5d 3e 72 b3 1b 3c
       0.19727628 0.025851866 0.21653698 0.009503232
0002f0 1d b3 1e 3c 50 f1 da 3b 37 65 83 3c 38 c6 8e 3d
       0.009686259 0.0066815987 0.016039474 0.06971401
000300 b1 1a ce 3a 42 68 21 3d c3 36 5b 3a d1 a7 4d 3c
       0.0015724507 0.03940607 0.0008362347 0.012552218
000310 af 2a 59 38 cf 46 5e 3a de 36 a4 3a fb 69 8e 3c
       5.1776584e-05 0.0008479179 0.0012528559 0.01738452
000320 02 5f 59 3a dd ec 28 3d 43 c8 87 3c 7a cd 54 3a
       0.00082920503 0.041241515 0.016574984 0.00081177766
000330 62 bd 27 3d 30 1d ed 3a d3 87 40 3a 12 2a 2c 3d
       0.040952094 0.0018090364 0.0007344458 0.04203231
000340 77 07 2d 3c af 81 01 3c 05 d2 cc 39 10 74 e5 38
       0.010560862 0.007904454 0.0003906639 0.00010941189
000350 e2 fa 3e 3a 01 ea c4 3c d5 32 06 3a 07 55 f7 3c
       0.0007285309 0.024037363 0.0005119269 0.030191911
000360 20 16 30 3c b0 a8 b7 3a 4b fd 41 3c 82 79 08 3a
       0.0107474625 0.0014012065 0.011840175 0.00052060944
000370 91 b3 0d 3a 01 4f bf 39 02 7e 65 3a 32 54 7e 3b
       0.00054054806 0.0003648922 0.00087544334 0.0038807509
000380 24 a6 07 3b f6 85 d7 3c af a5 54 3a 7d 5c 12 3c
       0.0020698393 0.026308995 0.0008111847 0.008933184
000390 0c 45 6a 37 6e 12 58 3a c3 94 54 3a 21 fd 85 3c
       1.3963563e-05 0.00082424923 0.00081093254 0.016356053
0003a0 86 f9 52 3a 1a 0c eb 3c a3 2f 39 3c 91 0f 4d 3a
       0.0008048046 0.028692294 0.011302861 0.0007822449
0003b0 1b d9 03 3d 41 5e 21 3b af ee 38 3a 1c 91 01 3d
       0.03218947 0.002462283 0.00070546096 0.031632528
0003c0 f6 1f 1b 3c 9a e4 dc 3b 26 e6 9c 39 40 0b 50 39
       0.009468069 0.0067411186 0.00029926113 0.00019840617
0003d0 15 2e 31 3a 1c 3f 91 3c 13 67 e7 39 76 d6 c6 3c
       0.0006758881 0.017730288 0.0004413655 0.024272185
0003e0 af 79 3a 3c d8 4e ab 3a c5 00 35 3c 19 9d f8 39
       0.011381551 0.0013069762 0.011047547 0.00047419293
0003f0 01 a2 bc 39 6b f2 b7 39 3d b2 60 3a c2 ec f7 3a
       0.00035978857 0.00035085095 0.00085714814 0.0018915164

exp_avg f4 [32]
000000 04 56 1b b8 a2 87 80 37 b6 f3 91 39 bb 7f 87 b9
       -3.7034988e-05 1.5321948e-05 0.00027838134 -0.00025844373
000010 2e da 94 b7 8e f9 76 39 17 79 bb b8 b0 5f aa b8
       -1.7744573e-05 0.00023553355 -8.9394096e-05 -8.124055e-05
000020 63 27 41 39 5b 38 3d 39 59 82 2f 39 28 38 8b b8
       0.00018420587 0.00018045439 0.00016737859 -6.6384964e-05
000030 19 e0 07 39 a1 3e f6 37 10 6d 0f 37 cf 3e 04 38
       0.00012958086 2.9354649e-05 8.548857e-06 3.1529748e-05
000040 bd 7f 0e 39 b2 d0 b4 39 6a e4 e0 b8 0d 8b c6 37
       0.00013589762 0.00034487766 -0.00010723698 2.366819e-05
000050 44 da 02 ba 4b 6a 94 37 a6 25 bb b8 e3 72 47 37
       -0.00049916306 1.7692471e-05 -8.9238674e-05 1.18880735e-05
000060 45 83 ec b9 02 50 32 b9 48 9a b8 ba e6 90 5d 37
       -0.0004511123 -0.00017005208 -0.0014084065 1.3206363e-05
000070 cd 02 c5 39 a6 5a 76 37 ce 1a f1 37 4d a6 83 39
       0.00037576855 1.4683848e-05 2.874192e-05 0.0002511017

exp_avg_sq f4 [32]
000000 ca 5d f1 3a 77 cf a1 38 c6 ff d0 3c 3a 6d cf 38
       0.0018414792 7.7157216e-05 0.025512587 9.890874e-05
000010 41 d5 d3 3b 3e bd 89 3c 3e fd 6f 3a c0 95 6d 3a
       0.006464631 0.01681387 0.00091548625 0.0009063147
000020 27 ca 3f 3c 71 9f 29 3c ac cd c0 3b 00 21 87 39
       0.011705912 0.010352955 0.005883893 0.00025773793
000030 4b 01 94 3b 74 db bd 3a 2f 69 e5 38 05 7e 1b 3a
       0.0045167557 0.0014484958 0.00010939163 0.0005931559
000040 1e 7d 6b 3b 87 f2 eb 3c e9 51 a3 3a 8f 7c 23 3b
       0.003593273 0.02880217 0.0012460324 0.002494607
000050 3d 67 f5 39 1f b3 42 39 87 c4 a4 3b 27 0f 35 39
       0.0004680696 0.0001856801 0.0050283107 0.0001726715
000060 11 6d 8d 3a f1 45 1f 39 c8 98 3d 3a 29 0c 4e 38
       0.0010789951 0.00015189477 0.0007232544 4.9125552e-05
000070 0c 27 a8 39 cf 59 01 39 3f 3d ce 39 ee 14 00 3c
       0.0003207255 0.00012335855 0.00039337014 0.00781749
