quantile_forecasters/1700580865.pt (torch, 106647 bytes, 6 tensors)

net.0.weight f4 [128, 17]
-1.0284839 -0.7465867 -0.9734466 -0.8342852 -0.7815231 -0.88176537 -0.6011577 -0.9837747
-0.76681894 -0.14471555 -0.34145603 -0.15665299 -0.4298823 -0.073952615 -0.024083188 -0.03202144
0.0012186163 -0.9021567 -0.6855796 -0.6194409 -0.74835753 -0.9135715 -0.6122157 -0.5419813
-0.733913 0.0110597545 0.03153194 -0.0689244 -0.050486315 -0.3431211 -0.09425792 -0.060287245
-0.17362118 -0.0037858838 0.022569394 0.0077453568 0.060123213 -0.03647601 -0.052783825 0.113133326
-0.6938757 -0.5506586 -0.056763116 -0.1717993 -0.6181794 -0.8928297 0.048018444 -0.26108178
0.092054956 0.041887123 -0.20585535 0.020579083 -0.023496779 -0.5431897 -1.0190057 -0.709854
-0.6696887 -0.47701585 -0.36765698 -0.38417387 -0.100748084 0.0010284991 0.078708224 0.018091843
-0.30064827 -0.91576374 -0.028655302 -0.06375534 -0.66093445 -0.79228157 -0.16820112 -0.014020152
-0.6320119 -1.0777775 -0.82644576 -0.032865014 -0.18237513 -0.831854 -0.028538052 -0.35668564
0.056044385 -0.9703793 -1.2891911 -0.46723694 -0.008784289 -0.4972775 -0.26083905 -0.45624554
-0.21719019 -0.22334632 -0.54410815 -0.31545523 0.039494585 0.0018538209 -0.19178037 -0.09331686
-0.03069696 -0.76231164 0.034158744 -0.031330537 -0.6064624 -0.12607966 -0.3435936 -0.09232594
-0.48513314 -0.08793388 -0.117930114 -0.16950823 -0.07393264 -0.5838521 -0.37354195 -0.399414
-0.7666368 0.029829709 -0.47160968 -1.1340661 -0.5429196 -0.47302794 -0.0763299 -0.6044735
-0.8327326 -0.9013245 -0.41407818 -0.76741475 -0.64946777 -0.5802363 -0.41542953 -0.40556628
-0.17955004 -0.5600522 0.004476306 0.21282251 0.0051092356 -0.092398286 -0.2255823 -0.022843078
-0.09350855 -0.070729636 0.26124856 0.56351304 0.5916632 0.4663374 0.3523467 0.11402018
-0.14792444 -0.15257189 -0.17746463 -0.03157385 -0.2724224 -0.21896507 -0.2648216 -1.1518867
0.0007951181 -0.08931635 0.0025031802 0.023634102 -0.17248987 0.1468774 -0.01639948 0.061669275
-0.5929318 -0.69655335 0.24915318 0.40243343 0.77552336 0.40965608 -0.32845202 -0.007081489
-0.3089667 0.029157445 -0.55347216 -0.59293216 -0.19900832 -0.22387385 -0.5923711 -0.50721055
-0.5267989 -0.33998844 -0.14501151 -0.16585675 -0.3368709 -0.077836074 -0.18791068 -0.10615028
-0.012256982 -0.27099508 -0.007108436 -0.79454154 -1.6380012 -1.2183642 0.022074357 0.0697691
-0.010050156 0.07209763 -0.08265444 0.062192842 0.0038056427 0.08612103 0.0445812 -0.052024312
-0.4612109 -0.8197259 0.0017220142 -0.14734931 -0.19796276 -0.17992963 -0.13816772 -0.25631595
-0.2080712 -0.35191652 -0.63335365 -0.054820765 -0.0064815446 0.25124207 0.05808774 -0.039078128
0.07861177 0.30375466 0.45923683 0.6906845 -0.006582402 -0.16147055 -0.03193173 -0.22771604
-0.012981885 -0.117345646 -0.049678728 -0.028745996 -0.039232034 0.108041696 -0.20071577 -0.010034544
-0.1176 -0.069562584 -0.03152606 0.10727246 1.0194571 0.058371663 -0.17908992 -0.41704983
-0.25328094 -0.32826367 -0.8123582 -0.71610796 -0.646106 -0.124464825 -0.478212 -0.49334252
-0.4550472 -0.031520784 -0.014632582 -0.00639372 -0.002536677 -0.080511786 -0.010796153 -0.32650104
00000000: 5ca5 83bf 4e20 3fbf cc33 79bf b793 55bf
00000010: e611 48bf 60bb 61bf 79e5 19bf a9d8 7bbf
00000020: 3f4e 44bf 5030 14be 53d3 aebe a469 20be
00000030: 8819 dcbe 7874 97bd 1b4a c5bc ea28 03bd
00000040: fab9 9f3a bef3 66bf 2582 2fbf ae93 1ebf
00000050: 5c94 3fbf d2df 69bf 2bba 1cbf 49bf 0abf
00000060: b9e1 3bbf f933 353c a327 013d 3c28 8dbd
00000070: bdca 4ebd 92ad afbe 4c0a c1bd c2ef 76bd
00000080: c0c9 31be 971c 78bb 73e3 b83c c3cc fd3b
00000090: c243 763d de67 15bd da33 58bd 72b2 e73d
000000a0: d6a1 31bf f6f7 0cbf 7180 68bd 28ec 2fbe
000000b0: 0141 1ebf 7d90 64bf fdae 443d 83ac 85be
000000c0: 4f87 bc3d d591 2b3d bfcb 52be 7795 a83c
000000d0: 517c c0bc 7b0e 0bbf c76e 82bf feb8 35bf
000000e0: b870 2bbf 6c3b f4be 893d bcbe 70b2 c4be
000000f0: 0355 cebd b4ce 863a c731 a13d 5835 943c
00000100: 92ee 99be 7e6f 6abf 86be eabc 2992 82bd
00000110: 0033 29bf f7d2 4abf ea3c 2cbe c8b4 65bc
00000120: 88cb 21bf 9df4 89bf f391 53bf 779d 06bd
00000130: 8cc0 3abe 62f4 54bf a2c8 e9bc 809f b6be
00000140: cc8e 653d c76a 78bf 3704 a5bf ae39 efbe
00000150: faeb 0fbc 289b febe b28c 85be 0499 e9be
00000160: 1b67 5ebe e6b4 64be ac4a 0bbf 5983 a1be
00000170: 13c5 213d e8fb f23a 1362 44be e91c bfbd
00000180: 3178 fbbc db26 43bf 0aea 0b3d 7354 00bd
00000190: 1f41 1bbf 071b 01be 80eb afbe 6215 bdbd
000001a0: 5f63 f8be ae16 b4bd 5885 f1bd 9193 2dbe
000001b0: ff69 97bd 5577 15bf e440 bfbe fe7f ccbe
000001c0: 4f42 44bf 6f5d f43c d376 f1be 1429 91bf
000001d0: c7fc 0abf b830 f2be da52 9cbd c6be 1abf
000001e0: f72d 55bf 34bd 66bf 0e02 d4be 4b75 44bf
000001f0: 8543 26bf 5e8a 14bf 2eb3 d4be 62a6 cfbe
00000200: f7db 37be 955f 0fbf faad 923b 25ee 593e
00000210: 606b a73b 503b bdbd 0cff 66be 6821 bbbc
00000220: 6981 bfbd b3da 90bd 5fc2 853e 6442 103f
00000230: 3d77 173f c7c3 ee3e c966 b43e 6a83 e93d
00000240: 8179 17be ce3b 1cbe 4ab9 35be 9553 01bd
00000250: f37a 8bbe 6138 60be b296 87be 0671 93bf
00000260: 796f 503a 7eeb b6bd 650c 243b 4e9c c13c
00000270: 2fa1 30be 0767 163e 3458 86bc ec98 7c3d
00000280: 61ca 17bf 5251 32bf 0322 7f3e c10b ce3e
00000290: b388 463f 71be d13e dd2a a8be d60b e8bb
000002a0: e230 9ebe 98db ee3c 5ab0 0dbf 67ca 17bf
000002b0: d6c8 4bbe 303f 65be a2a5 17bf 8dd8 01bf
000002c0: 4bdc 06bf f712 aebe e67d 14be 5ad6 29be
000002d0: 587a acbe 8568 9fbd a86b 40be 5165 d9bd
000002e0: 82d1 48bc debf 8abe e2ed e8bb 1367 4bbf
000002f0: 06aa d1bf 5cf3 9bbf 48d5 b43c 1ae3 8e3d
00000300: 69a9 24bc eca7 933d bb46 a9bd ecbd 7e3d
00000310: 1768 793b 3960 b03d c79a 363d 7217 55bd
00000320: d623 ecbe 8ed9 51bf 35b5 e13a bde2 16be
00000330: c0b6 4abe 793f 38be d77b 0dbe d83b 83be
00000340: 9e10 55be 672e b4be 7723 22bf bd8b 60bd
00000350: 2363 d4bb cda2 803e 69ed 6d3d 6310 20bd
00000360: 35ff a03d bb85 9b3e 1721 eb3e b3d0 303f
00000370: 31b1 d7bb 8958 25be d9ca 02bd 652e 69be
00000380: f9b1 54bc ea52 f0bd ec7b 4bbd b97c ebbc
00000390: c5b1 20bd f744 dd3d 6f88 4dbe ee67 24bc
000003a0: 45d8 f0bd d476 8ebd 7821 01bd aab1 db3d
000003b0: 927d 823f 2017 6f3d 5963 37be 8e87 d5be
000003c0: 0aae 81be 2d12 a8be b5f6 4fbf da52 37bf
000003d0: 3467 25bf 6ae7 febd 34d8 f4be 6497 fcbe
000003e0: f2fb e8be f01b 01bd 7fbd 6fbc 6982 d1bb
000003f0: 613e 26bb 5de3 a4bd 59e2 30bc 252b a7be

net.0.bias f4 [128]
-2.5141788 -2.4388163 3.5591333 -1.5456941 -0.22168031 -1.2461175 -0.36367115 -0.72579086
-7.429032 -2.5300124 -3.3419833 1.8242515 -2.1277134 -0.16223046 -0.9359716 -1.6222919
-3.276956 -0.32914972 -1.2395747 -0.05278816 -4.2170005 -0.6794907 -2.7726555 5.7890024
0.017337784 2.6825833 -2.372963 0.6716127 -2.1771371 -0.57163155 -2.940424 -0.21569037
-0.8513454 -3.6474373 -0.3207711 -0.5683642 -1.6153679 14.222227 0.8549085 0.24733946
5.749841 -1.626671 -0.8960667 -0.9425676 -2.82843 0.79710066 -5.6794806 -2.556077
-0.17117345 -0.27436766 -4.608432 -3.9105535 1.785719 -1.8224902 -1.9115055 2.0024595
1.0022488 0.28997463 -0.73828 -0.48733258 0.18759453 -1.8536245 -1.4784495 -2.1209297
-0.8967812 -1.2491469 -1.249255 -2.0220463 -2.0746121 -1.1482097 -2.1481779 -1.5053197
2.6973126 -2.8768547 -2.6395795 -2.3389606 -1.5762032 -0.82350326 2.5845778 -1.2783911
-10.169222 1.8673536 -0.85485685 -2.3810375 -3.5807343 -0.35998586 -3.6037087 -3.9658391
-0.092059135 0.936642 -1.5518147 1.3876384 -1.428028 -0.09321892 -3.6865246 -3.2424822
2.6654983 -0.5309123 -1.4209765 -1.8967105 3.399763 2.7299943 -2.5942712 2.2245207
-2.5155988 -0.38227108 -1.4573282 -4.128452 0.013140557 -2.0379326 -0.6310459 2.1083326
-0.467526 -2.8525226 1.0263506 -4.324852 3.024831 -0.7337402 -0.32775548 -0.68031675
-3.3976421 -0.75069034 -3.342297 2.6211019 -1.3607936 -2.0570178 -1.3659154 -0.06265422
00000000: 4ee8 20c0 9115 1cc0 d7c8 6340 4ed9 c5bf
00000010: 2a00 63be c780 9fbf 1b33 babe 6ecd 39bf
00000020: a1ba edc0 b9eb 21c0 0ee3 55c0 1381 e93f
00000030: 752c 08c0 be1f 26be d69b 6fbf 43a7 cfbf
00000040: a6b9 51c0 5086 a8be 62aa 9ebf 6638 58bd
00000050: abf1 86c0 1af3 2dbf 3073 31c0 823f b940
00000060: f807 8e3c 72af 2b40 a0de 17c0 cfee 2b3f
00000070: 3756 0bc0 7256 12bf e82f 3cc0 f0dd 5cbe
00000080: c6f1 59bf 9d6f 69c0 1c3c a4be 5180 11bf
00000090: 60c4 cebf 3e8e 6341 49db 5a3f 8e46 7d3e
000000a0: b3fe b740 c136 d0bf a164 65bf 1c4c 71bf
000000b0: ff04 35c0 ca0e 4c3f 4ebe b5c0 c496 23c0
000000c0: 1848 2fbe eb79 8cbe 4678 93c0 8246 7ac0
000000d0: 7192 e43f 5c47 e9bf 36ac f4bf 4c28 0040
000000e0: b049 803f 8e77 943e ebff 3cbf a883 f9be
000000f0: c818 403e 9143 edbf d53d bdbf 50bd 07c0
00000100: 7493 65bf 0ce4 9fbf 96e7 9fbf 3569 01c0
00000110: 72c6 04c0 89f8 92bf bf7b 09c0 51ae c0bf
00000120: c5a0 2c40 631e 38c0 dfee 28c0 88b1 15c0
00000130: 07c1 c9bf 1cd1 52bf b969 2540 52a2 a3bf
00000140: 22b5 22c1 7105 ef3f e6d7 5abf eb62 18c0
00000150: c02a 65c0 1150 b8be 2aa3 66c0 4fd0 7dc0
00000160: 8089 bcbd c5c7 6f3f dda1 c6bf 239e b13f
00000170: 9fc9 b6bf 90e9 bebd 05f0 6bc0 d484 4fc0
00000180: 8697 2a40 dee9 07bf 8fe2 b5bf 69c7 f2bf
00000190: b895 5940 3ab8 2e40 8a08 26c0 8c5e 0e40
000001a0: 92ff 20c0 09b9 c3be bb89 babf 471c 84c0
000001b0: 7e4b 573c 7d6d 02c0 398c 21bf ecee 0640
000001c0: 915f efbe bb8f 36c0 755f 833f 3065 8ac0
000001d0: d596 4140 66d6 3bbf 91cf a7be 3d29 2ebf
000001e0: f872 59c0 3e2d 40bf 32e8 55c0 22c0 2740
000001f0: 7c2e aebf 2ea6 03c0 51d6 aebf db50 80bd

net.2.weight f4 [128, 128]
0.8511277 -0.10652674 -0.3462003 -0.40891826 0.025366114 -0.33867222 0.028772125 -0.10129377
0.23519783 -0.77312416 0.30829698 -0.35812184 -0.29904902 -1.2367387 -0.0439021 -0.053733576
0.7355526 0.7414227 -0.03398696 -0.17156526 0.5788628 -0.11091734 -0.14677535 -0.0660321
-0.029163165 -0.25059724 0.22862092 0.48970515 -0.050875656 -0.2887344 1.614358 -0.35284775
-0.08107892 0.78822637 -0.94141847 -0.21007799 -0.050586008 -0.08041418 -0.7027574 -0.8426512
1.0068257 -0.03419904 -0.1606355 -0.68456596 0.3379549 -0.08626782 -0.9985313 0.4914071
-0.1745095 -0.26649323 0.23783964 -1.079477 -0.5245777 0.20804386 -0.047397297 -0.059692975
-0.30126312 -0.24612945 -0.07891278 0.5165416 -0.35107026 0.023042368 0.009697375 0.014384383
-0.5447888 -0.19402342 -0.053327102 -0.06914929 -0.14797631 -0.040137548 -0.13444936 -0.16652495
0.046064008 0.73374826 -0.43701562 0.042496145 -0.032610152 -0.24659391 -0.15075707 -0.07768806
-0.24425028 -0.3259128 -0.08737192 -0.19347486 0.6720967 0.2933965 0.58496916 0.72899896
-0.2425192 -0.5880297 -0.08544848 0.93137425 -0.23049895 -0.5676088 0.61431 0.17833827
-0.26182258 -0.26249748 -0.23742096 -0.21678475 -0.057235584 -0.40873027 0.31400523 0.025223995
-0.024249732 -0.0782623 -7.6114506e-05 -0.3877642 -0.69729704 -0.7302072 0.005072791 -0.15280505
-0.15490842 0.72962725 -0.41760525 -0.28151745 -0.15000448 2.614051 -0.12774567 -0.15758291
-0.36030614 -0.70756793 0.5707848 0.053129207 -0.13872199 -0.07802176 -0.726953 -0.31255245
0.45123386 -0.029224308 -0.2417338 -0.15619676 0.36736125 -0.13516529 0.0018986841 -0.065287516
-0.14737064 -0.046171583 0.26213855 -0.25950631 -0.39146033 -0.38155702 0.0274756 -0.118087016
0.62348604 0.36088896 -0.14380997 -0.1847979 0.51283795 -0.031167848 -0.1185824 -0.28652963
-0.19431527 0.117093995 0.19796675 0.40184984 0.1614981 -0.17307663 0.4345672 -0.18802178
0.024231132 0.61930776 -0.5882936 -0.21899043 0.14654392 0.18902972 0.3848341 -0.06550555
0.3214302 0.04130971 -0.018556062 -0.10646751 0.29764846 -0.16032986 -0.15321708 0.36444235
-0.1224051 -0.15626062 -0.1690242 -0.030548375 -0.17647423 0.4052937 -0.10363083 0.36828396
-0.20761046 -0.20233318 -0.12244741 -0.20249915 -0.0710629 0.24276957 0.22314925 0.080782376
-0.16923362 -0.18581773 0.17250994 0.115831666 -0.033816457 -0.0992967 -0.21390179 -0.21625082
0.22486518 0.45785603 -0.15332884 0.114955395 -0.17435022 0.45120084 -0.24904168 -0.07339413
-0.16229562 -0.18734919 -0.2237272 -0.06970014 0.545023 0.12565355 0.6718119 0.40648538
-0.07519286 -0.24210863 -0.2219982 0.100251265 -0.15983413 -0.12529984 0.66792417 0.20998476
-0.1814592 -0.14662468 -0.08916591 -0.01862821 -0.4487924 -0.12089845 0.22909306 -0.31016773
-0.012373538 -0.052580763 0.028004289 -0.20730138 -0.107575044 -0.07302637 -0.13057885 -0.16304055
-0.05356819 0.6981315 -0.34970906 -0.17934218 -0.2610472 0.3374549 -0.22215718 -0.07578303
-0.14997236 -0.32434997 0.5888784 -0.17285286 -0.17264082 -0.059262417 -0.36586267 -0.066124015
00000000: 81e3 593f b12a dabd 2a41 b1be bc5d d1be
00000010: 99cc cf3c 7266 adbe 85b3 eb3c 1c73 cfbd
00000020: b3d7 703e 77eb 45bf 1ad9 9d3e bf5b b7be
00000030: f41c 99be 744d 9ebf b0d2 33bd bd17 5cbd
00000040: 2d4d 3c3f e1cd 3d3f e935 0bbd ceae 2fbe
00000050: 5a30 143f a128 e3bd 474c 16be d63b 87bd
00000060: 97e7 eebc 484e 80be 9a1b 6a3e a2ba fa3e
00000070: fe62 50bd ffd4 93be 48a3 ce3f 76a8 b4be
00000080: b40c a6bd 34c9 493f cd00 71bf af1e 57be
00000090: 4633 4fbd 31b0 a4bd e9e7 33bf fdb7 57bf
000000a0: aadf 803f 4b14 0cbd a27d 24be b73f 2fbf
000000b0: 6d08 ad3e 2fad b0bd bf9f 7fbf b699 fb3e
000000c0: 9eb2 32be cd71 88be 3c8c 733e 4d2c 8abf
000000d0: b94a 06bf 7309 553e ab23 42bd 9f80 74bd
000000e0: 293f 9abe 5c09 7cbe 069d a1bd 123c 043f
000000f0: 7bbf b3be 59c3 bc3c bde1 1e3c 7aac 6b3c
00000100: 4777 0bbf 13ae 46be 856d 5abd 259e 8dbd
00000110: 1a87 17be 4567 24bd 18ad 09be 8485 2abe
00000120: 9dad 3c3d edd6 3b3f 83c0 dfbe 7010 2e3d
00000130: 3992 05bd 1d83 7cbe 1060 1abe eb1a 9fbd
00000140: bf1c 7abe 0bde a6be 0df0 b2bd 461e 46be
00000150: 880e 2c3f 1138 963e 8ac0 153f ad9f 3a3f
00000160: f456 78be 1d89 16bf 9dff aebd 8b6e 6e3f
00000170: eb07 6cbe cf4e 11bf 6c43 1d3f 4f9e 363e
00000180: 9c0d 86be 1266 86be 7b1e 73be d2fc 5dbe
00000190: dc6f 6abd 1845 d1be 4bc5 a03e 8da2 ce3c
000001a0: 60a7 c6bc fc47 a0bd aa9f 9fb8 0789 c6be
000001b0: 0f82 32bf dcee 3abf a839 a63b ed78 1cbe
000001c0: 50a0 1ebe dac8 3a3f 5bd0 d5be 0e23 90be
000001d0: c69a 19be 9d4c 2740 c3cf 02be 6a5d 21be
000001e0: 0c7a b8be 2c23 35bf f41e 123f 039e 593d
000001f0: 230d 0ebe dfc9 9fbd 9819 3abf e006 a0be
00000200: 2008 e73e d167 efbc 1189 77be 0bf2 1fbe
00000210: c616 bc3e c568 0abe 44dd f83a 76b5 85bd
00000220: 54e8 16be 6a1e 3dbd 0637 863e 03de 84be
00000230: 7d6d c8be 715b c3be 8214 e13c 9bd7 f1bd
00000240: c89c 1f3f 70c6 b83e ec42 13be a93b 3dbe
00000250: 5949 033f b753 ffbc 54db f2bd 03b4 92be
00000260: 95fa 46be face ef3d ccb7 4a3e 43bf cd3e
00000270: c25f 253e 003b 31be 987f de3e c888 40be
00000280: 5e80 c63c f48a 1e3f 699a 16bf 073f 60be
00000290: 9c0f 163e 0291 413e fa08 c53e c627 86bd
000002a0: 8092 a43e 5f34 293d e202 98bc a30b dabd
000002b0: 6165 983e 832d 24be f0e4 1cbe 3098 ba3e
000002c0: 86af fabd c902 20be ae14 2dbe 9640 fabc
000002d0: a9b5 34be a882 cf3e 673c d4bd b78f bc3e
000002e0: d697 54be 6e30 4fbe b5c5 fabd f05b 4fbe
000002f0: 6d89 91bd 9698 783e 3d81 643e 3b71 a53d
00000300: 944b 2dbe 0147 3ebe 72a6 303e 2739 ed3d
00000310: 2083 0abd 115c cbbd 1209 5bbe db70 5dbe
00000320: 0f43 663e 1b6c ea3e 3c02 1dbe bc6d eb3d
00000330: dd88 32be cc03 e73e c804 7fbe a94f 96bd
00000340: d330 26be 77d8 3fbe be18 65be f2be 8ebd
00000350: a186 0b3f 53ab 003e ddfb 2b3f da1e d03e
00000360: b7fe 99bd 53eb 77be 7f53 63be 8950 cd3d
00000370: 8fab 23be 9a4e 00be 14fd 2a3f 3f06 573e
00000380: 71d0 39be c824 16be 9e9c b6bd 309a 98bc
00000390: 1ec8 e5be 9b99 f7bd 5f97 6a3e 4ece 9ebe
000003a0: 61ba 4abc ed5e 57bd 4069 e53c d046 54be
000003b0: 4e50 dcbd d98e 95bd 76b6 05be 1af4 26be
000003c0: 526a 5bbd bfb8 323f 110d b3be 7aa5 37be
000003d0: fba7 85be e3c6 ac3e 2c7d 63be 2234 9bbd
000003e0: 5b92 19be 3311 a6be bcc0 163f 5700 31be
000003f0: c1c8 30be 26bd 72bd 5a52 bbbe 076c 87bd

net.2.bias f4 [128]
-0.45815903 -0.3716134 -0.26348734 -0.5549309 -0.47581312 -0.42029712 0.0969717 -0.22001316
-0.78346044 0.94775784 1.829268 -0.3559407 -0.21098277 0.1525106 -0.7462681 0.9651871
-0.31278953 -1.059389 -3.1967626 -4.803867 -0.44113788 -0.13842975 -0.19356522 -0.6887026
-0.49799126 0.1406831 0.122078694 -0.6971314 -1.0172234 -0.5441119 -0.51332355 0.19860372
0.51388454 -0.36690038 0.41719878 -0.5302643 -0.3508145 -0.065775014 -0.19213265 -0.3389653
-0.94278985 -0.37443975 -0.91372037 -0.07586832 -0.2942949 0.14837791 -0.30664977 0.38352165
-0.61530846 1.2882288 -0.81562203 -0.6076794 -0.43418548 -0.050930653 -0.12542172 -1.7026029
-0.41880545 -0.21999587 -0.473693 -0.47383085 -0.5824191 -0.46113876 0.702893 0.3221609
1.2638367 -1.2772508 -0.5475877 -0.2375098 1.2112156 -0.29347897 0.54218084 -0.38596153
-0.33011657 -0.1076233 -1.0905042 -0.27925682 -0.06864934 0.854967 0.49276993 -0.7887625
-0.9680328 -0.43440124 -0.58472055 0.12889974 -0.049326144 -0.14636265 -0.045438163 -0.27929914
-2.4067779 -0.25828245 0.41822222 -0.13162625 -0.34350175 -0.42409766 -0.48063722 -0.50929457
-0.32307422 0.37617648 -0.34001985 -0.18451083 -0.473565 -1.332464 -0.8974431 0.18559287
0.40939605 -0.41757488 -0.1172016 -0.96675557 -0.33815023 0.7880776 0.073995434 -0.29791304
0.13078338 -0.029561587 -0.22338173 -0.48691037 -0.44548967 -0.34133536 -0.5186822 -0.031122403
-0.23822245 -0.49950585 -0.35827893 -0.56808126 -0.4692576 0.26591924 -0.11569009 -0.3509324
00000000: d293 eabe 1d44 bebe d0e7 86be f40f 0ebf
00000010: c79d f3be 2f31 d7be 1999 c63d 214b 61be
00000020: dd90 48bf 42a0 723f 7425 ea3f dc3d b6be
00000030: de0b 58be bd2b 1c3e 6d0b 3fbf 8016 773f
00000040: f325 a0be 0f9a 87bf c297 4cc0 47b9 99c0
00000050: d3dc e1be 87c0 0dbe f635 46be d04e 30bf
00000060: b6f8 febe 3b0f 103e 6504 fa3d 3477 32bf
00000070: 6034 82bf eb4a 0bbf 2c69 03bf c65e 4b3e
00000080: f08d 033f 5eda bbbe 149b d53e 67bf 07bf
00000090: f59d b3be 0db5 86bd 6cbe 44be dc8c adbe
000000a0: ad5a 71bf 91b6 bfbe 94e9 69bf da60 9bbd
000000b0: d2ad 96be 61f0 173e 3301 9dbe f35c c43e
000000c0: db84 1dbf aee4 a43f 9bcc 50bf e190 1bbf
000000d0: 8f4d debe a99c 50bd 8d6e 00be e4ee d9bf
000000e0: ab6d d6be 9946 61be e487 f2be f599 f2be
000000f0: 6b19 15bf 611a ecbe ccf0 333f 46f2 a43e
00000100: 67c5 a13f f47c a3bf b52e 0cbf c535 73be
00000110: 1d09 9b3f e042 96be 5dcc 0a3f c09c c5be
00000120: 0a05 a9be 9b69 dcbd a495 8bbf c0fa 8ebe
00000130: 0698 8cbd 1edf 5a3f 574c fc3e 57ec 49bf
00000140: ffd0 77bf d769 debe 3fb0 15bf 4bfe 033e
00000150: 360a 4abd 17e0 15be 5e1d 3abd 4c00 8fbe
00000160: a608 1ac0 993d 84be 3921 d63e 08c9 06be
00000170: 76df afbe 5423 d9be 1516 f6be 2161 02bf
00000180: fc69 a5be 349a c03e 1517 aebe 68f0 3cbe
00000190: 1d77 f2be 2e8e aabf d5be 65bf 0f0c 3e3e
000001a0: 5c9c d13e 60cc d5be 6407 f0bd 4b7d 77bf
000001b0: 0722 adbe 74bf 493f eb8a 973d 0f88 98be
000001c0: 14ec 053e 242b f2bc 2ebe 64be 514c f9be
000001d0: 3917 e4be 82c3 aebe 5bc8 04bf 69f4 febc
000001e0: 96f0 73be 3bbf ffbe 5670 b7be c66d 11bf
000001f0: 8842 f0be 9126 883e edee ecbd 69ad b3be

net.4.weight f4 [57, 128]
-0.2461556 -0.29518676 -0.40351018 -0.24873397 -0.17307383 -0.46933624 -0.19301161 0.1795214
0.2965326 -0.2493726 0.13448651 -0.36932278 0.020769915 -0.28120324 0.29434422 -0.1144964
-0.23531379 -0.6605813 0.19203728 -1.3786536 -0.243022 -0.35267892 0.12652215 0.1805942
-0.15359879 -0.32320696 -0.090853475 0.037524324 0.35396314 -0.6092185 -0.33881867 -0.34733245
-0.2529904 0.06760777 0.16618875 -0.2414607 0.07729119 0.31825376 -0.3665231 -0.3302293
0.3768495 0.1317179 0.0704741 -0.16930439 -0.21382785 -0.4936949 -0.3231982 -0.22254078
0.26933664 -0.2504963 -0.34346828 -0.26369473 -0.3438979 -0.32410827 -0.41348243 -0.011438722
-0.17376225 -0.17437212 -0.31678066 0.123423114 -0.38092622 -0.34582853 -0.005316438 -0.32772133
-0.277638 0.40333426 -0.3219517 -0.6650211 0.20928207 0.36214167 -0.8449596 -0.19254506
-0.26912656 0.12890476 0.4126957 0.55500525 -0.07962149 -0.2644243 -0.16983736 0.48676893
-0.35776094 0.74233216 -0.24693279 -0.32461408 -0.18793339 -0.13191146 -0.80633974 -0.29253605
1.4625568 0.3248722 -0.2024803 0.07070275 -0.21813068 -0.21723492 -0.32922605 -0.28377062
-0.23012942 -0.30757344 -0.30631512 0.13976158 -0.45088547 -0.39794314 -0.013483619 -0.29666498
0.101721026 -0.27711993 0.33760646 -0.38050354 -0.2820645 0.27894238 0.021768533 -0.3306595
0.09275265 0.2081625 0.26025477 -0.41028607 -0.26713595 -0.3015819 -0.30532518 0.048933174
0.28822273 -0.25247538 -0.18059416 -0.096731484 0.10417602 0.35096678 -0.06727912 -0.29366073
-0.22789833 -0.1855315 -0.4139773 -0.3064818 -0.20577829 -0.5278172 -0.24128622 0.20294261
0.34322754 -0.304522 0.17383005 -0.40033275 -0.5138622 -0.42520273 0.01700089 -0.09590765
-0.26067317 -0.28328693 0.22259136 -1.3212504 -0.30620635 -0.43121436 0.13112286 0.20044322
-0.1874635 -0.42580566 -0.110546365 -0.105421714 0.4031031 -0.6232305 -0.16814744 -0.3618519
-0.30017772 0.101265594 0.16257551 -0.14172943 0.107202545 0.36734894 -0.33357936 -0.18950532
-0.10443945 0.1515164 -0.30817494 -0.18280134 -0.199759 -0.5316537 -0.23909308 -0.26041624
0.31343558 -0.30113223 -0.4353681 -0.17925955 -0.27089518 -0.27247825 -0.4433436 -0.014296753
-0.2778791 -0.2987758 -0.2710927 0.124402195 -0.23898895 -0.26886466 0.0032143171 -0.3331698
-0.32077223 -0.09308321 -0.24238507 -0.8037866 0.27069014 0.08372119 -1.033711 -0.23848549
-0.4211763 0.17314681 0.058098357 0.66046315 -0.053509288 -0.32006738 -0.25149533 0.1096221
-0.35722595 0.8670011 -0.19144969 -0.31201196 -0.19449085 -0.1672422 -0.82451236 -0.31421497
1.6320773 0.40403154 -0.21913275 0.07364417 -0.23404284 -0.19177088 -0.23338452 -0.31742364
-0.15858077 -0.313558 -0.18304501 0.18214047 -0.5709883 -0.47975197 -0.46442556 -0.33146554
0.14626995 -0.15194911 0.41534635 -0.45625195 -0.29798293 0.33121333 0.012802312 -0.1702596
0.117978476 0.258259 0.2986877 -0.25219044 -0.23134838 -0.28187126 -0.1567097 0.069413856
0.3719966 -0.2225114 -0.23829634 -0.1256614 0.111821756 0.47578493 -0.54324114 -0.34259447
00000000: 3710 7cbe b822 97be e398 cebe 1eb4 7ebe
00000010: 443a 31be d74c f0be d6a4 45be 75d4 373e
00000020: 1fd3 973e 885b 7fbe d5b6 093e e017 bdbe
00000030: ab25 aa3c dff9 8fbe 49b4 963e 177d eabd
00000040: 19f6 70be db1b 29bf 6ca5 443e b977 b0bf
00000050: c2da 78be 5592 b4be 068f 013e b0ed 383e
00000060: 0049 1dbe 627b a5be 6311 babd 1bb3 193d
00000070: a83a b53e bef5 1bbf a479 adbe 8fd5 b1be
00000080: f587 81be f175 8a3d 622d 2a3e 7941 77be
00000090: d84a 9e3d 28f2 a23e eaa8 bbbe d113 a9be
000000a0: 6bf2 c03e 0fe1 063e ba54 903d 215e 2dbe
000000b0: b0f5 5abe 94c5 fcbe 3c7a a5be bbe1 63be
000000c0: 7ee6 893e 0d41 80be 13db afbe ff02 87be
000000d0: 6313 b0be 85f1 a5be f8b3 d3be 7a69 3bbc
000000e0: bbee 31be 9b8e 32be 1331 a2be 42c5 fc3d
000000f0: c308 c3be 7010 b1be 8435 aebb 17cb a7be
00000100: 9126 8ebe d481 ce3e dad6 a4be d33e 2abf
00000110: 0a4e 563e a26a b93e 464f 58bf 882a 45be
00000120: f5ca 89be 9cff 033e da4c d33e d314 0e3f
00000130: 9710 a3bd 9f62 87be d8e9 2dbe c739 f93e
00000140: 712c b7be 7b09 3e3f f3db 7cbe d133 a6be
00000150: 9c71 40be cc13 07be 486c 4ebf 49c7 95be
00000160: 1035 bb3f a655 a63e ff56 4fbe 9acc 903d
00000170: a65d 5fbe d572 5ebe 5190 a8be 624a 91be
00000180: 0ca7 6bbe 447a 9dbe 56d5 9cbe a91d 0f3e
00000190: 76da e6be 34bf cbbe 66ea 5cbc 79e4 97be
000001a0: 1d53 d03d aae2 8dbe c1da ac3e 5cd1 c2be
000001b0: c26a 90be 89d1 8e3e ec53 b23c 344c a9be
000001c0: 1af5 bd3d 8d28 553e 1d40 853e 0411 d2be
000001d0: 0bc6 88be f168 9abe 9553 9cbe 276e 483d
000001e0: ee91 933e 7444 81be aded 38be 281b c6bd
000001f0: 3d5a d53d ebb1 b33e a3c9 89bd b35a 96be
00000200: 2e5e 69be f8fb 3dbe d5f4 d3be 2feb 9cbe
00000210: 8bb7 52be 071f 07bf bc13 77be 30d0 4f3e
00000220: 85bb af3e 4fea 9bbe 8100 323e 6af8 ccbe
00000230: 798c 03bf 2cb4 d9be 7345 8b3c 3b6b c4bd
00000240: f476 85be fc0a 91be fdee 633e bc1e a9bf
00000250: 14c7 9cbe 21c8 dcbe 1245 063e fd40 4d3e
00000260: 6ff6 3fbe 3303 dabe 2266 e2bd 57e7 d7bd
00000270: 8863 ce3e 098c 1fbf d82e 2cbe a744 b9be
00000280: e5b0 99be 5664 cf3d 327a 263e 8521 11be
00000290: 028d db3d 2915 bc3e eaca aabe af0d 42be
000002a0: 5ae4 d5bd 1d27 1b3e 1bc9 9dbe 4630 3bbe
000002b0: a08d 4cbe 751a 08bf d1d4 74be 4755 85be
000002c0: a17a a03e 012e 9abe 91e8 debe d18f 37be
000002d0: c6b2 8abe 4582 8bbe effd e2be ee3c 6abc
000002e0: 2b46 8ebe 24f9 98be aacc 8abe 94c6 fe3d
000002f0: 85b9 74be a1a8 89be 4ba7 523b 3b95 aabe
00000300: 423c a4be 69a2 bebd cb33 78be f5c4 4dbf
00000310: e697 8a3e 0476 ab3d a450 84bf 8a35 74be
00000320: 6ca4 d7be 664d 313e 8bf8 6d3d 1d14 293f
00000330: 8e2c 5bbd dfdf a3be ffc3 80be 8d81 e03d
00000340: 52e6 b6be c9f3 5d3f 630b 44be 08c0 9fbe
00000350: 9c28 47be 8a41 2bbe 3e13 53bf c9e0 a0be
00000360: e9e7 d03f 39dd ce3e 5664 60be c1d2 963d
00000370: eda8 6fbe 965f 44be 5afc 6ebe 5a85 a2be
00000380: ff62 22be ad8a a0be 2770 3bbe 0883 3a3e
00000390: 4a2c 12bf 0da2 f5be 30c9 edbe dab5 a9be
000003a0: cac7 153e 8c98 1bbe 47a8 d43e db99 e9be
000003b0: 3891 98be cb94 a93e cac0 513c 8858 2ebe
000003c0: b39e f13d 863a 843e 98ed 983e 1b1f 81be
000003d0: 97e6 6cbe 6e51 90be 8278 20be da28 8e3d
000003e0: 5776 be3e 07da 63be f503 74be 62ad 00be
000003f0: ce02 e53d 159a f33e da11 0bbf 8b68 afbe

net.4.bias f4 [57]
-0.5297263 0.0034724833 -0.074762315 -0.31335634 -0.027203271 0.17012855 -0.19537441 -0.01565462
0.012760625 -0.08647493 -0.020708086 -0.11354643 -0.13901386 0.00937658 0.95894593 -0.113085926
-0.028101187 0.10799755 0.036452323 -0.028261546 0.14690238 0.10488498 1.3996333 0.27071244
0.13799548 0.2883383 -0.030303262 0.24034075 0.28327584 0.24838947 0.41563 2.2649722
2.52101 0.37962127 0.47074962 0.21766227 0.3740802 0.6211758 0.51415557 0.5713604
0.6266632 0.7237087 0.4818956 0.7433104 0.7065839 0.79905164 0.9999442 1.0861187
0.95913994 1.3306419 1.2784715 1.0579169 1.4332386 3.182438 1.6692312 1.8218129
3.9295232
00000000: 259c 07bf 9a92 633b fc1c 99bd 3e70 a0be
00000010: 65d9 debc 2e36 2e3e 3b10 48be 1e3e 80bc
00000020: f111 513c c519 b1bd 01a4 a9bc 088b e8bd
00000030: a659 0ebe 3aa0 193c 7b7d 753f 9899 e7bd
00000040: 7634 e6bc d22d dd3d 084f 153d c284 e7bc
00000050: 946d 163e f0cd d63d 2f27 b33f d29a 8a3e
00000060: b04e 0d3e 14a1 933e 8c3e f8bc e31b 763e
00000070: 8809 913e cf59 7e3e 75cd d43e 4ef5 1040
00000080: 3a58 2140 b85d c23e 1806 f13e dce2 5e3e
00000090: 7187 bf3e 6105 1f3f b39f 033f ad44 123f
000000a0: 006d 203f f944 393f 05bb f63e 9749 3e3f
000000b0: afe2 343f a68e 4c3f 58fc 7f3f f005 8b3f
000000c0: 328a 753f 7952 aa3f f4a4 a33f d269 873f
000000d0: 5d74 b73f 10ad 4b40 5ea9 d53f 2a31 e93f
000000e0: 4f7d 7b40
